7767517
1827 2238
Input            input                    0 1 input
Convolution      /Conv                    1 1 input /Conv_output_0 0=64 1=3 4=1 5=1 6=1728
Split            splitncnn_0              1 4 /Conv_output_0 /Conv_output_0_splitncnn_0 /Conv_output_0_splitncnn_1 /Conv_output_0_splitncnn_2 /Conv_output_0_splitncnn_3
Convolution      /Conv_1                  1 1 /Conv_output_0_splitncnn_3 /Relu_output_0 0=64 1=3 4=1 5=1 6=36864 9=1
Convolution      /Conv_2                  1 1 /Relu_output_0 /Conv_2_output_0 0=64 1=3 4=1 5=1 6=36864
Split            splitncnn_1              1 2 /Conv_2_output_0 /Conv_2_output_0_splitncnn_0 /Conv_2_output_0_splitncnn_1
Pooling          /GlobalAveragePool       1 1 /Conv_2_output_0_splitncnn_1 /GlobalAveragePool_output_0 0=1 4=1
InnerProduct     /Conv_3                  1 1 /GlobalAveragePool_output_0 /Relu_1_output_0 0=4 1=1 2=256 9=1
InnerProduct     /Conv_4                  1 1 /Relu_1_output_0 /Sigmoid_output_0 0=64 1=1 2=256 9=4
BinaryOp         /Mul_1                   2 1 /Conv_2_output_0_splitncnn_0 /Sigmoid_output_0 /Mul_1_output_0 0=2
BinaryOp         /Add                     2 1 /Mul_1_output_0 /Conv_output_0_splitncnn_2 /Add_output_0
Split            splitncnn_2              1 2 /Add_output_0 /Add_output_0_splitncnn_0 /Add_output_0_splitncnn_1
Convolution      /Conv_5                  1 1 /Add_output_0_splitncnn_1 /Relu_2_output_0 0=64 1=3 4=1 5=1 6=36864 9=1
Convolution      /Conv_6                  1 1 /Relu_2_output_0 /Conv_6_output_0 0=64 1=3 4=1 5=1 6=36864
Split            splitncnn_3              1 2 /Conv_6_output_0 /Conv_6_output_0_splitncnn_0 /Conv_6_output_0_splitncnn_1
Pooling          /GlobalAveragePool_1     1 1 /Conv_6_output_0_splitncnn_1 /GlobalAveragePool_1_output_0 0=1 4=1
InnerProduct     /Conv_7                  1 1 /GlobalAveragePool_1_output_0 /Relu_3_output_0 0=4 1=1 2=256 9=1
InnerProduct     /Conv_8                  1 1 /Relu_3_output_0 /Sigmoid_1_output_0 0=64 1=1 2=256 9=4
BinaryOp         /Mul_2                   2 1 /Conv_6_output_0_splitncnn_0 /Sigmoid_1_output_0 /Mul_2_output_0 0=2
BinaryOp         /Add_1                   2 1 /Mul_2_output_0 /Add_output_0_splitncnn_0 /Add_1_output_0
Split            splitncnn_4              1 2 /Add_1_output_0 /Add_1_output_0_splitncnn_0 /Add_1_output_0_splitncnn_1
Convolution      /Conv_9                  1 1 /Add_1_output_0_splitncnn_1 /Relu_4_output_0 0=64 1=3 4=1 5=1 6=36864 9=1
Convolution      /Conv_10                 1 1 /Relu_4_output_0 /Conv_10_output_0 0=64 1=3 4=1 5=1 6=36864
Split            splitncnn_5              1 2 /Conv_10_output_0 /Conv_10_output_0_splitncnn_0 /Conv_10_output_0_splitncnn_1
Pooling          /GlobalAveragePool_2     1 1 /Conv_10_output_0_splitncnn_1 /GlobalAveragePool_2_output_0 0=1 4=1
InnerProduct     /Conv_11                 1 1 /GlobalAveragePool_2_output_0 /Relu_5_output_0 0=4 1=1 2=256 9=1
InnerProduct     /Conv_12                 1 1 /Relu_5_output_0 /Sigmoid_2_output_0 0=64 1=1 2=256 9=4
BinaryOp         /Mul_3                   2 1 /Conv_10_output_0_splitncnn_0 /Sigmoid_2_output_0 /Mul_3_output_0 0=2
BinaryOp         /Add_2                   2 1 /Mul_3_output_0 /Add_1_output_0_splitncnn_0 /Add_2_output_0
Split            splitncnn_6              1 2 /Add_2_output_0 /Add_2_output_0_splitncnn_0 /Add_2_output_0_splitncnn_1
Convolution      /Conv_13                 1 1 /Add_2_output_0_splitncnn_1 /Relu_6_output_0 0=64 1=3 4=1 5=1 6=36864 9=1
Convolution      /Conv_14                 1 1 /Relu_6_output_0 /Conv_14_output_0 0=64 1=3 4=1 5=1 6=36864
Split            splitncnn_7              1 2 /Conv_14_output_0 /Conv_14_output_0_splitncnn_0 /Conv_14_output_0_splitncnn_1
Pooling          /GlobalAveragePool_3     1 1 /Conv_14_output_0_splitncnn_1 /GlobalAveragePool_3_output_0 0=1 4=1
InnerProduct     /Conv_15                 1 1 /GlobalAveragePool_3_output_0 /Relu_7_output_0 0=4 1=1 2=256 9=1
InnerProduct     /Conv_16                 1 1 /Relu_7_output_0 /Sigmoid_3_output_0 0=64 1=1 2=256 9=4
BinaryOp         /Mul_4                   2 1 /Conv_14_output_0_splitncnn_0 /Sigmoid_3_output_0 /Mul_4_output_0 0=2
BinaryOp         /Add_3                   2 1 /Mul_4_output_0 /Add_2_output_0_splitncnn_0 /Add_3_output_0
Split            splitncnn_8              1 2 /Add_3_output_0 /Add_3_output_0_splitncnn_0 /Add_3_output_0_splitncnn_1
Convolution      /Conv_17                 1 1 /Add_3_output_0_splitncnn_1 /Relu_8_output_0 0=64 1=3 4=1 5=1 6=36864 9=1
Convolution      /Conv_18                 1 1 /Relu_8_output_0 /Conv_18_output_0 0=64 1=3 4=1 5=1 6=36864
Split            splitncnn_9              1 2 /Conv_18_output_0 /Conv_18_output_0_splitncnn_0 /Conv_18_output_0_splitncnn_1
Pooling          /GlobalAveragePool_4     1 1 /Conv_18_output_0_splitncnn_1 /GlobalAveragePool_4_output_0 0=1 4=1
InnerProduct     /Conv_19                 1 1 /GlobalAveragePool_4_output_0 /Relu_9_output_0 0=4 1=1 2=256 9=1
InnerProduct     /Conv_20                 1 1 /Relu_9_output_0 /Sigmoid_4_output_0 0=64 1=1 2=256 9=4
BinaryOp         /Mul_5                   2 1 /Conv_18_output_0_splitncnn_0 /Sigmoid_4_output_0 /Mul_5_output_0 0=2
BinaryOp         /Add_4                   2 1 /Mul_5_output_0 /Add_3_output_0_splitncnn_0 /Add_4_output_0
Split            splitncnn_10             1 2 /Add_4_output_0 /Add_4_output_0_splitncnn_0 /Add_4_output_0_splitncnn_1
Convolution      /Conv_21                 1 1 /Add_4_output_0_splitncnn_1 /Relu_10_output_0 0=64 1=3 4=1 5=1 6=36864 9=1
Convolution      /Conv_22                 1 1 /Relu_10_output_0 /Conv_22_output_0 0=64 1=3 4=1 5=1 6=36864
Split            splitncnn_11             1 2 /Conv_22_output_0 /Conv_22_output_0_splitncnn_0 /Conv_22_output_0_splitncnn_1
Pooling          /GlobalAveragePool_5     1 1 /Conv_22_output_0_splitncnn_1 /GlobalAveragePool_5_output_0 0=1 4=1
InnerProduct     /Conv_23                 1 1 /GlobalAveragePool_5_output_0 /Relu_11_output_0 0=4 1=1 2=256 9=1
InnerProduct     /Conv_24                 1 1 /Relu_11_output_0 /Sigmoid_5_output_0 0=64 1=1 2=256 9=4
BinaryOp         /Mul_6                   2 1 /Conv_22_output_0_splitncnn_0 /Sigmoid_5_output_0 /Mul_6_output_0 0=2
BinaryOp         /Add_5                   2 1 /Mul_6_output_0 /Add_4_output_0_splitncnn_0 /Add_5_output_0
Split            splitncnn_12             1 2 /Add_5_output_0 /Add_5_output_0_splitncnn_0 /Add_5_output_0_splitncnn_1
Convolution      /Conv_25                 1 1 /Add_5_output_0_splitncnn_1 /Relu_12_output_0 0=64 1=3 4=1 5=1 6=36864 9=1
Convolution      /Conv_26                 1 1 /Relu_12_output_0 /Conv_26_output_0 0=64 1=3 4=1 5=1 6=36864
Split            splitncnn_13             1 2 /Conv_26_output_0 /Conv_26_output_0_splitncnn_0 /Conv_26_output_0_splitncnn_1
Pooling          /GlobalAveragePool_6     1 1 /Conv_26_output_0_splitncnn_1 /GlobalAveragePool_6_output_0 0=1 4=1
InnerProduct     /Conv_27                 1 1 /GlobalAveragePool_6_output_0 /Relu_13_output_0 0=4 1=1 2=256 9=1
InnerProduct     /Conv_28                 1 1 /Relu_13_output_0 /Sigmoid_6_output_0 0=64 1=1 2=256 9=4
BinaryOp         /Mul_7                   2 1 /Conv_26_output_0_splitncnn_0 /Sigmoid_6_output_0 /Mul_7_output_0 0=2
BinaryOp         /Add_6                   2 1 /Mul_7_output_0 /Add_5_output_0_splitncnn_0 /Add_6_output_0
Split            splitncnn_14             1 2 /Add_6_output_0 /Add_6_output_0_splitncnn_0 /Add_6_output_0_splitncnn_1
Convolution      /Conv_29                 1 1 /Add_6_output_0_splitncnn_1 /Relu_14_output_0 0=64 1=3 4=1 5=1 6=36864 9=1
Convolution      /Conv_30                 1 1 /Relu_14_output_0 /Conv_30_output_0 0=64 1=3 4=1 5=1 6=36864
Split            splitncnn_15             1 2 /Conv_30_output_0 /Conv_30_output_0_splitncnn_0 /Conv_30_output_0_splitncnn_1
Pooling          /GlobalAveragePool_7     1 1 /Conv_30_output_0_splitncnn_1 /GlobalAveragePool_7_output_0 0=1 4=1
InnerProduct     /Conv_31                 1 1 /GlobalAveragePool_7_output_0 /Relu_15_output_0 0=4 1=1 2=256 9=1
InnerProduct     /Conv_32                 1 1 /Relu_15_output_0 /Sigmoid_7_output_0 0=64 1=1 2=256 9=4
BinaryOp         /Mul_8                   2 1 /Conv_30_output_0_splitncnn_0 /Sigmoid_7_output_0 /Mul_8_output_0 0=2
BinaryOp         /Add_7                   2 1 /Mul_8_output_0 /Add_6_output_0_splitncnn_0 /Add_7_output_0
Split            splitncnn_16             1 2 /Add_7_output_0 /Add_7_output_0_splitncnn_0 /Add_7_output_0_splitncnn_1
Convolution      /Conv_33                 1 1 /Add_7_output_0_splitncnn_1 /Relu_16_output_0 0=64 1=3 4=1 5=1 6=36864 9=1
Convolution      /Conv_34                 1 1 /Relu_16_output_0 /Conv_34_output_0 0=64 1=3 4=1 5=1 6=36864
Split            splitncnn_17             1 2 /Conv_34_output_0 /Conv_34_output_0_splitncnn_0 /Conv_34_output_0_splitncnn_1
Pooling          /GlobalAveragePool_8     1 1 /Conv_34_output_0_splitncnn_1 /GlobalAveragePool_8_output_0 0=1 4=1
InnerProduct     /Conv_35                 1 1 /GlobalAveragePool_8_output_0 /Relu_17_output_0 0=4 1=1 2=256 9=1
InnerProduct     /Conv_36                 1 1 /Relu_17_output_0 /Sigmoid_8_output_0 0=64 1=1 2=256 9=4
BinaryOp         /Mul_9                   2 1 /Conv_34_output_0_splitncnn_0 /Sigmoid_8_output_0 /Mul_9_output_0 0=2
BinaryOp         /Add_8                   2 1 /Mul_9_output_0 /Add_7_output_0_splitncnn_0 /Add_8_output_0
Split            splitncnn_18             1 2 /Add_8_output_0 /Add_8_output_0_splitncnn_0 /Add_8_output_0_splitncnn_1
Convolution      /Conv_37                 1 1 /Add_8_output_0_splitncnn_1 /Relu_18_output_0 0=64 1=3 4=1 5=1 6=36864 9=1
Convolution      /Conv_38                 1 1 /Relu_18_output_0 /Conv_38_output_0 0=64 1=3 4=1 5=1 6=36864
Split            splitncnn_19             1 2 /Conv_38_output_0 /Conv_38_output_0_splitncnn_0 /Conv_38_output_0_splitncnn_1
Pooling          /GlobalAveragePool_9     1 1 /Conv_38_output_0_splitncnn_1 /GlobalAveragePool_9_output_0 0=1 4=1
InnerProduct     /Conv_39                 1 1 /GlobalAveragePool_9_output_0 /Relu_19_output_0 0=4 1=1 2=256 9=1
InnerProduct     /Conv_40                 1 1 /Relu_19_output_0 /Sigmoid_9_output_0 0=64 1=1 2=256 9=4
BinaryOp         /Mul_10                  2 1 /Conv_38_output_0_splitncnn_0 /Sigmoid_9_output_0 /Mul_10_output_0 0=2
BinaryOp         /Add_9                   2 1 /Mul_10_output_0 /Add_8_output_0_splitncnn_0 /Add_9_output_0
Split            splitncnn_20             1 2 /Add_9_output_0 /Add_9_output_0_splitncnn_0 /Add_9_output_0_splitncnn_1
Convolution      /Conv_41                 1 1 /Add_9_output_0_splitncnn_1 /Relu_20_output_0 0=64 1=3 4=1 5=1 6=36864 9=1
Convolution      /Conv_42                 1 1 /Relu_20_output_0 /Conv_42_output_0 0=64 1=3 4=1 5=1 6=36864
Split            splitncnn_21             1 2 /Conv_42_output_0 /Conv_42_output_0_splitncnn_0 /Conv_42_output_0_splitncnn_1
Pooling          /GlobalAveragePool_10    1 1 /Conv_42_output_0_splitncnn_1 /GlobalAveragePool_10_output_0 0=1 4=1
InnerProduct     /Conv_43                 1 1 /GlobalAveragePool_10_output_0 /Relu_21_output_0 0=4 1=1 2=256 9=1
InnerProduct     /Conv_44                 1 1 /Relu_21_output_0 /Sigmoid_10_output_0 0=64 1=1 2=256 9=4
BinaryOp         /Mul_11                  2 1 /Conv_42_output_0_splitncnn_0 /Sigmoid_10_output_0 /Mul_11_output_0 0=2
BinaryOp         /Add_10                  2 1 /Mul_11_output_0 /Add_9_output_0_splitncnn_0 /Add_10_output_0
Split            splitncnn_22             1 2 /Add_10_output_0 /Add_10_output_0_splitncnn_0 /Add_10_output_0_splitncnn_1
Convolution      /Conv_45                 1 1 /Add_10_output_0_splitncnn_1 /Relu_22_output_0 0=64 1=3 4=1 5=1 6=36864 9=1
Convolution      /Conv_46                 1 1 /Relu_22_output_0 /Conv_46_output_0 0=64 1=3 4=1 5=1 6=36864
Split            splitncnn_23             1 2 /Conv_46_output_0 /Conv_46_output_0_splitncnn_0 /Conv_46_output_0_splitncnn_1
Pooling          /GlobalAveragePool_11    1 1 /Conv_46_output_0_splitncnn_1 /GlobalAveragePool_11_output_0 0=1 4=1
InnerProduct     /Conv_47                 1 1 /GlobalAveragePool_11_output_0 /Relu_23_output_0 0=4 1=1 2=256 9=1
InnerProduct     /Conv_48                 1 1 /Relu_23_output_0 /Sigmoid_11_output_0 0=64 1=1 2=256 9=4
BinaryOp         /Mul_12                  2 1 /Conv_46_output_0_splitncnn_0 /Sigmoid_11_output_0 /Mul_12_output_0 0=2
BinaryOp         /Add_11                  2 1 /Mul_12_output_0 /Add_10_output_0_splitncnn_0 /Add_11_output_0
Split            splitncnn_24             1 2 /Add_11_output_0 /Add_11_output_0_splitncnn_0 /Add_11_output_0_splitncnn_1
Convolution      /Conv_49                 1 1 /Add_11_output_0_splitncnn_1 /Relu_24_output_0 0=64 1=3 4=1 5=1 6=36864 9=1
Convolution      /Conv_50                 1 1 /Relu_24_output_0 /Conv_50_output_0 0=64 1=3 4=1 5=1 6=36864
Split            splitncnn_25             1 2 /Conv_50_output_0 /Conv_50_output_0_splitncnn_0 /Conv_50_output_0_splitncnn_1
Pooling          /GlobalAveragePool_12    1 1 /Conv_50_output_0_splitncnn_1 /GlobalAveragePool_12_output_0 0=1 4=1
InnerProduct     /Conv_51                 1 1 /GlobalAveragePool_12_output_0 /Relu_25_output_0 0=4 1=1 2=256 9=1
InnerProduct     /Conv_52                 1 1 /Relu_25_output_0 /Sigmoid_12_output_0 0=64 1=1 2=256 9=4
BinaryOp         /Mul_13                  2 1 /Conv_50_output_0_splitncnn_0 /Sigmoid_12_output_0 /Mul_13_output_0 0=2
BinaryOp         /Add_12                  2 1 /Mul_13_output_0 /Add_11_output_0_splitncnn_0 /Add_12_output_0
Split            splitncnn_26             1 2 /Add_12_output_0 /Add_12_output_0_splitncnn_0 /Add_12_output_0_splitncnn_1
Convolution      /Conv_53                 1 1 /Add_12_output_0_splitncnn_1 /Relu_26_output_0 0=64 1=3 4=1 5=1 6=36864 9=1
Convolution      /Conv_54                 1 1 /Relu_26_output_0 /Conv_54_output_0 0=64 1=3 4=1 5=1 6=36864
Split            splitncnn_27             1 2 /Conv_54_output_0 /Conv_54_output_0_splitncnn_0 /Conv_54_output_0_splitncnn_1
Pooling          /GlobalAveragePool_13    1 1 /Conv_54_output_0_splitncnn_1 /GlobalAveragePool_13_output_0 0=1 4=1
InnerProduct     /Conv_55                 1 1 /GlobalAveragePool_13_output_0 /Relu_27_output_0 0=4 1=1 2=256 9=1
InnerProduct     /Conv_56                 1 1 /Relu_27_output_0 /Sigmoid_13_output_0 0=64 1=1 2=256 9=4
BinaryOp         /Mul_14                  2 1 /Conv_54_output_0_splitncnn_0 /Sigmoid_13_output_0 /Mul_14_output_0 0=2
BinaryOp         /Add_13                  2 1 /Mul_14_output_0 /Add_12_output_0_splitncnn_0 /Add_13_output_0
Split            splitncnn_28             1 2 /Add_13_output_0 /Add_13_output_0_splitncnn_0 /Add_13_output_0_splitncnn_1
Convolution      /Conv_57                 1 1 /Add_13_output_0_splitncnn_1 /Relu_28_output_0 0=64 1=3 4=1 5=1 6=36864 9=1
Convolution      /Conv_58                 1 1 /Relu_28_output_0 /Conv_58_output_0 0=64 1=3 4=1 5=1 6=36864
Split            splitncnn_29             1 2 /Conv_58_output_0 /Conv_58_output_0_splitncnn_0 /Conv_58_output_0_splitncnn_1
Pooling          /GlobalAveragePool_14    1 1 /Conv_58_output_0_splitncnn_1 /GlobalAveragePool_14_output_0 0=1 4=1
InnerProduct     /Conv_59                 1 1 /GlobalAveragePool_14_output_0 /Relu_29_output_0 0=4 1=1 2=256 9=1
InnerProduct     /Conv_60                 1 1 /Relu_29_output_0 /Sigmoid_14_output_0 0=64 1=1 2=256 9=4
BinaryOp         /Mul_15                  2 1 /Conv_58_output_0_splitncnn_0 /Sigmoid_14_output_0 /Mul_15_output_0 0=2
BinaryOp         /Add_14                  2 1 /Mul_15_output_0 /Add_13_output_0_splitncnn_0 /Add_14_output_0
Split            splitncnn_30             1 2 /Add_14_output_0 /Add_14_output_0_splitncnn_0 /Add_14_output_0_splitncnn_1
Convolution      /Conv_61                 1 1 /Add_14_output_0_splitncnn_1 /Relu_30_output_0 0=64 1=3 4=1 5=1 6=36864 9=1
Convolution      /Conv_62                 1 1 /Relu_30_output_0 /Conv_62_output_0 0=64 1=3 4=1 5=1 6=36864
Split            splitncnn_31             1 2 /Conv_62_output_0 /Conv_62_output_0_splitncnn_0 /Conv_62_output_0_splitncnn_1
Pooling          /GlobalAveragePool_15    1 1 /Conv_62_output_0_splitncnn_1 /GlobalAveragePool_15_output_0 0=1 4=1
InnerProduct     /Conv_63                 1 1 /GlobalAveragePool_15_output_0 /Relu_31_output_0 0=4 1=1 2=256 9=1
InnerProduct     /Conv_64                 1 1 /Relu_31_output_0 /Sigmoid_15_output_0 0=64 1=1 2=256 9=4
BinaryOp         /Mul_16                  2 1 /Conv_62_output_0_splitncnn_0 /Sigmoid_15_output_0 /Mul_16_output_0 0=2
BinaryOp         /Add_15                  2 1 /Mul_16_output_0 /Add_14_output_0_splitncnn_0 /Add_15_output_0
Split            splitncnn_32             1 2 /Add_15_output_0 /Add_15_output_0_splitncnn_0 /Add_15_output_0_splitncnn_1
Convolution      /Conv_65                 1 1 /Add_15_output_0_splitncnn_1 /Relu_32_output_0 0=64 1=3 4=1 5=1 6=36864 9=1
Convolution      /Conv_66                 1 1 /Relu_32_output_0 /Conv_66_output_0 0=64 1=3 4=1 5=1 6=36864
Split            splitncnn_33             1 2 /Conv_66_output_0 /Conv_66_output_0_splitncnn_0 /Conv_66_output_0_splitncnn_1
Pooling          /GlobalAveragePool_16    1 1 /Conv_66_output_0_splitncnn_1 /GlobalAveragePool_16_output_0 0=1 4=1
InnerProduct     /Conv_67                 1 1 /GlobalAveragePool_16_output_0 /Relu_33_output_0 0=4 1=1 2=256 9=1
InnerProduct     /Conv_68                 1 1 /Relu_33_output_0 /Sigmoid_16_output_0 0=64 1=1 2=256 9=4
BinaryOp         /Mul_17                  2 1 /Conv_66_output_0_splitncnn_0 /Sigmoid_16_output_0 /Mul_17_output_0 0=2
BinaryOp         /Add_16                  2 1 /Mul_17_output_0 /Add_15_output_0_splitncnn_0 /Add_16_output_0
Split            splitncnn_34             1 2 /Add_16_output_0 /Add_16_output_0_splitncnn_0 /Add_16_output_0_splitncnn_1
Convolution      /Conv_69                 1 1 /Add_16_output_0_splitncnn_1 /Relu_34_output_0 0=64 1=3 4=1 5=1 6=36864 9=1
Convolution      /Conv_70                 1 1 /Relu_34_output_0 /Conv_70_output_0 0=64 1=3 4=1 5=1 6=36864
Split            splitncnn_35             1 2 /Conv_70_output_0 /Conv_70_output_0_splitncnn_0 /Conv_70_output_0_splitncnn_1
Pooling          /GlobalAveragePool_17    1 1 /Conv_70_output_0_splitncnn_1 /GlobalAveragePool_17_output_0 0=1 4=1
InnerProduct     /Conv_71                 1 1 /GlobalAveragePool_17_output_0 /Relu_35_output_0 0=4 1=1 2=256 9=1
InnerProduct     /Conv_72                 1 1 /Relu_35_output_0 /Sigmoid_17_output_0 0=64 1=1 2=256 9=4
BinaryOp         /Mul_18                  2 1 /Conv_70_output_0_splitncnn_0 /Sigmoid_17_output_0 /Mul_18_output_0 0=2
BinaryOp         /Add_17                  2 1 /Mul_18_output_0 /Add_16_output_0_splitncnn_0 /Add_17_output_0
Split            splitncnn_36             1 2 /Add_17_output_0 /Add_17_output_0_splitncnn_0 /Add_17_output_0_splitncnn_1
Convolution      /Conv_73                 1 1 /Add_17_output_0_splitncnn_1 /Relu_36_output_0 0=64 1=3 4=1 5=1 6=36864 9=1
Convolution      /Conv_74                 1 1 /Relu_36_output_0 /Conv_74_output_0 0=64 1=3 4=1 5=1 6=36864
Split            splitncnn_37             1 2 /Conv_74_output_0 /Conv_74_output_0_splitncnn_0 /Conv_74_output_0_splitncnn_1
Pooling          /GlobalAveragePool_18    1 1 /Conv_74_output_0_splitncnn_1 /GlobalAveragePool_18_output_0 0=1 4=1
InnerProduct     /Conv_75                 1 1 /GlobalAveragePool_18_output_0 /Relu_37_output_0 0=4 1=1 2=256 9=1
InnerProduct     /Conv_76                 1 1 /Relu_37_output_0 /Sigmoid_18_output_0 0=64 1=1 2=256 9=4
BinaryOp         /Mul_19                  2 1 /Conv_74_output_0_splitncnn_0 /Sigmoid_18_output_0 /Mul_19_output_0 0=2
BinaryOp         /Add_18                  2 1 /Mul_19_output_0 /Add_17_output_0_splitncnn_0 /Add_18_output_0
Split            splitncnn_38             1 2 /Add_18_output_0 /Add_18_output_0_splitncnn_0 /Add_18_output_0_splitncnn_1
Convolution      /Conv_77                 1 1 /Add_18_output_0_splitncnn_1 /Relu_38_output_0 0=64 1=3 4=1 5=1 6=36864 9=1
Convolution      /Conv_78                 1 1 /Relu_38_output_0 /Conv_78_output_0 0=64 1=3 4=1 5=1 6=36864
Split            splitncnn_39             1 2 /Conv_78_output_0 /Conv_78_output_0_splitncnn_0 /Conv_78_output_0_splitncnn_1
Pooling          /GlobalAveragePool_19    1 1 /Conv_78_output_0_splitncnn_1 /GlobalAveragePool_19_output_0 0=1 4=1
InnerProduct     /Conv_79                 1 1 /GlobalAveragePool_19_output_0 /Relu_39_output_0 0=4 1=1 2=256 9=1
InnerProduct     /Conv_80                 1 1 /Relu_39_output_0 /Sigmoid_19_output_0 0=64 1=1 2=256 9=4
BinaryOp         /Mul_20                  2 1 /Conv_78_output_0_splitncnn_0 /Sigmoid_19_output_0 /Mul_20_output_0 0=2
BinaryOp         /Add_19                  2 1 /Mul_20_output_0 /Add_18_output_0_splitncnn_0 /Add_19_output_0
Convolution      /Conv_81                 1 1 /Add_19_output_0 /Conv_81_output_0 0=64 1=3 4=1 5=1 6=36864
BinaryOp         /Add_20                  2 1 /Conv_81_output_0 /Conv_output_0_splitncnn_1 /Add_20_output_0
Split            splitncnn_40             1 3 /Add_20_output_0 /Add_20_output_0_splitncnn_0 /Add_20_output_0_splitncnn_1 /Add_20_output_0_splitncnn_2
Convolution      /Conv_82                 1 1 /Add_20_output_0_splitncnn_2 /Relu_40_output_0 0=64 1=3 4=1 5=1 6=36864 9=1
Convolution      /Conv_83                 1 1 /Relu_40_output_0 /Conv_83_output_0 0=64 1=3 4=1 5=1 6=36864
Split            splitncnn_41             1 2 /Conv_83_output_0 /Conv_83_output_0_splitncnn_0 /Conv_83_output_0_splitncnn_1
Pooling          /GlobalAveragePool_20    1 1 /Conv_83_output_0_splitncnn_1 /GlobalAveragePool_20_output_0 0=1 4=1
InnerProduct     /Conv_84                 1 1 /GlobalAveragePool_20_output_0 /Relu_41_output_0 0=4 1=1 2=256 9=1
InnerProduct     /Conv_85                 1 1 /Relu_41_output_0 /Sigmoid_20_output_0 0=64 1=1 2=256 9=4
BinaryOp         /Mul_21                  2 1 /Conv_83_output_0_splitncnn_0 /Sigmoid_20_output_0 /Mul_21_output_0 0=2
BinaryOp         /Add_21                  2 1 /Mul_21_output_0 /Add_20_output_0_splitncnn_1 /Add_21_output_0
Split            splitncnn_42             1 2 /Add_21_output_0 /Add_21_output_0_splitncnn_0 /Add_21_output_0_splitncnn_1
Convolution      /Conv_86                 1 1 /Add_21_output_0_splitncnn_1 /Relu_42_output_0 0=64 1=3 4=1 5=1 6=36864 9=1
Convolution      /Conv_87                 1 1 /Relu_42_output_0 /Conv_87_output_0 0=64 1=3 4=1 5=1 6=36864
Split            splitncnn_43             1 2 /Conv_87_output_0 /Conv_87_output_0_splitncnn_0 /Conv_87_output_0_splitncnn_1
Pooling          /GlobalAveragePool_21    1 1 /Conv_87_output_0_splitncnn_1 /GlobalAveragePool_21_output_0 0=1 4=1
InnerProduct     /Conv_88                 1 1 /GlobalAveragePool_21_output_0 /Relu_43_output_0 0=4 1=1 2=256 9=1
InnerProduct     /Conv_89                 1 1 /Relu_43_output_0 /Sigmoid_21_output_0 0=64 1=1 2=256 9=4
BinaryOp         /Mul_22                  2 1 /Conv_87_output_0_splitncnn_0 /Sigmoid_21_output_0 /Mul_22_output_0 0=2
BinaryOp         /Add_22                  2 1 /Mul_22_output_0 /Add_21_output_0_splitncnn_0 /Add_22_output_0
Split            splitncnn_44             1 2 /Add_22_output_0 /Add_22_output_0_splitncnn_0 /Add_22_output_0_splitncnn_1
Convolution      /Conv_90                 1 1 /Add_22_output_0_splitncnn_1 /Relu_44_output_0 0=64 1=3 4=1 5=1 6=36864 9=1
Convolution      /Conv_91                 1 1 /Relu_44_output_0 /Conv_91_output_0 0=64 1=3 4=1 5=1 6=36864
Split            splitncnn_45             1 2 /Conv_91_output_0 /Conv_91_output_0_splitncnn_0 /Conv_91_output_0_splitncnn_1
Pooling          /GlobalAveragePool_22    1 1 /Conv_91_output_0_splitncnn_1 /GlobalAveragePool_22_output_0 0=1 4=1
InnerProduct     /Conv_92                 1 1 /GlobalAveragePool_22_output_0 /Relu_45_output_0 0=4 1=1 2=256 9=1
InnerProduct     /Conv_93                 1 1 /Relu_45_output_0 /Sigmoid_22_output_0 0=64 1=1 2=256 9=4
BinaryOp         /Mul_23                  2 1 /Conv_91_output_0_splitncnn_0 /Sigmoid_22_output_0 /Mul_23_output_0 0=2
BinaryOp         /Add_23                  2 1 /Mul_23_output_0 /Add_22_output_0_splitncnn_0 /Add_23_output_0
Split            splitncnn_46             1 2 /Add_23_output_0 /Add_23_output_0_splitncnn_0 /Add_23_output_0_splitncnn_1
Convolution      /Conv_94                 1 1 /Add_23_output_0_splitncnn_1 /Relu_46_output_0 0=64 1=3 4=1 5=1 6=36864 9=1
Convolution      /Conv_95                 1 1 /Relu_46_output_0 /Conv_95_output_0 0=64 1=3 4=1 5=1 6=36864
Split            splitncnn_47             1 2 /Conv_95_output_0 /Conv_95_output_0_splitncnn_0 /Conv_95_output_0_splitncnn_1
Pooling          /GlobalAveragePool_23    1 1 /Conv_95_output_0_splitncnn_1 /GlobalAveragePool_23_output_0 0=1 4=1
InnerProduct     /Conv_96                 1 1 /GlobalAveragePool_23_output_0 /Relu_47_output_0 0=4 1=1 2=256 9=1
InnerProduct     /Conv_97                 1 1 /Relu_47_output_0 /Sigmoid_23_output_0 0=64 1=1 2=256 9=4
BinaryOp         /Mul_24                  2 1 /Conv_95_output_0_splitncnn_0 /Sigmoid_23_output_0 /Mul_24_output_0 0=2
BinaryOp         /Add_24                  2 1 /Mul_24_output_0 /Add_23_output_0_splitncnn_0 /Add_24_output_0
Split            splitncnn_48             1 2 /Add_24_output_0 /Add_24_output_0_splitncnn_0 /Add_24_output_0_splitncnn_1
Convolution      /Conv_98                 1 1 /Add_24_output_0_splitncnn_1 /Relu_48_output_0 0=64 1=3 4=1 5=1 6=36864 9=1
Convolution      /Conv_99                 1 1 /Relu_48_output_0 /Conv_99_output_0 0=64 1=3 4=1 5=1 6=36864
Split            splitncnn_49             1 2 /Conv_99_output_0 /Conv_99_output_0_splitncnn_0 /Conv_99_output_0_splitncnn_1
Pooling          /GlobalAveragePool_24    1 1 /Conv_99_output_0_splitncnn_1 /GlobalAveragePool_24_output_0 0=1 4=1
InnerProduct     /Conv_100                1 1 /GlobalAveragePool_24_output_0 /Relu_49_output_0 0=4 1=1 2=256 9=1
InnerProduct     /Conv_101                1 1 /Relu_49_output_0 /Sigmoid_24_output_0 0=64 1=1 2=256 9=4
BinaryOp         /Mul_25                  2 1 /Conv_99_output_0_splitncnn_0 /Sigmoid_24_output_0 /Mul_25_output_0 0=2
BinaryOp         /Add_25                  2 1 /Mul_25_output_0 /Add_24_output_0_splitncnn_0 /Add_25_output_0
Split            splitncnn_50             1 2 /Add_25_output_0 /Add_25_output_0_splitncnn_0 /Add_25_output_0_splitncnn_1
Convolution      /Conv_102                1 1 /Add_25_output_0_splitncnn_1 /Relu_50_output_0 0=64 1=3 4=1 5=1 6=36864 9=1
Convolution      /Conv_103                1 1 /Relu_50_output_0 /Conv_103_output_0 0=64 1=3 4=1 5=1 6=36864
Split            splitncnn_51             1 2 /Conv_103_output_0 /Conv_103_output_0_splitncnn_0 /Conv_103_output_0_splitncnn_1
Pooling          /GlobalAveragePool_25    1 1 /Conv_103_output_0_splitncnn_1 /GlobalAveragePool_25_output_0 0=1 4=1
InnerProduct     /Conv_104                1 1 /GlobalAveragePool_25_output_0 /Relu_51_output_0 0=4 1=1 2=256 9=1
InnerProduct     /Conv_105                1 1 /Relu_51_output_0 /Sigmoid_25_output_0 0=64 1=1 2=256 9=4
BinaryOp         /Mul_26                  2 1 /Conv_103_output_0_splitncnn_0 /Sigmoid_25_output_0 /Mul_26_output_0 0=2
BinaryOp         /Add_26                  2 1 /Mul_26_output_0 /Add_25_output_0_splitncnn_0 /Add_26_output_0
Split            splitncnn_52             1 2 /Add_26_output_0 /Add_26_output_0_splitncnn_0 /Add_26_output_0_splitncnn_1
Convolution      /Conv_106                1 1 /Add_26_output_0_splitncnn_1 /Relu_52_output_0 0=64 1=3 4=1 5=1 6=36864 9=1
Convolution      /Conv_107                1 1 /Relu_52_output_0 /Conv_107_output_0 0=64 1=3 4=1 5=1 6=36864
Split            splitncnn_53             1 2 /Conv_107_output_0 /Conv_107_output_0_splitncnn_0 /Conv_107_output_0_splitncnn_1
Pooling          /GlobalAveragePool_26    1 1 /Conv_107_output_0_splitncnn_1 /GlobalAveragePool_26_output_0 0=1 4=1
InnerProduct     /Conv_108                1 1 /GlobalAveragePool_26_output_0 /Relu_53_output_0 0=4 1=1 2=256 9=1
InnerProduct     /Conv_109                1 1 /Relu_53_output_0 /Sigmoid_26_output_0 0=64 1=1 2=256 9=4
BinaryOp         /Mul_27                  2 1 /Conv_107_output_0_splitncnn_0 /Sigmoid_26_output_0 /Mul_27_output_0 0=2
BinaryOp         /Add_27                  2 1 /Mul_27_output_0 /Add_26_output_0_splitncnn_0 /Add_27_output_0
Split            splitncnn_54             1 2 /Add_27_output_0 /Add_27_output_0_splitncnn_0 /Add_27_output_0_splitncnn_1
Convolution      /Conv_110                1 1 /Add_27_output_0_splitncnn_1 /Relu_54_output_0 0=64 1=3 4=1 5=1 6=36864 9=1
Convolution      /Conv_111                1 1 /Relu_54_output_0 /Conv_111_output_0 0=64 1=3 4=1 5=1 6=36864
Split            splitncnn_55             1 2 /Conv_111_output_0 /Conv_111_output_0_splitncnn_0 /Conv_111_output_0_splitncnn_1
Pooling          /GlobalAveragePool_27    1 1 /Conv_111_output_0_splitncnn_1 /GlobalAveragePool_27_output_0 0=1 4=1
InnerProduct     /Conv_112                1 1 /GlobalAveragePool_27_output_0 /Relu_55_output_0 0=4 1=1 2=256 9=1
InnerProduct     /Conv_113                1 1 /Relu_55_output_0 /Sigmoid_27_output_0 0=64 1=1 2=256 9=4
BinaryOp         /Mul_28                  2 1 /Conv_111_output_0_splitncnn_0 /Sigmoid_27_output_0 /Mul_28_output_0 0=2
BinaryOp         /Add_28                  2 1 /Mul_28_output_0 /Add_27_output_0_splitncnn_0 /Add_28_output_0
Split            splitncnn_56             1 2 /Add_28_output_0 /Add_28_output_0_splitncnn_0 /Add_28_output_0_splitncnn_1
Convolution      /Conv_114                1 1 /Add_28_output_0_splitncnn_1 /Relu_56_output_0 0=64 1=3 4=1 5=1 6=36864 9=1
Convolution      /Conv_115                1 1 /Relu_56_output_0 /Conv_115_output_0 0=64 1=3 4=1 5=1 6=36864
Split            splitncnn_57             1 2 /Conv_115_output_0 /Conv_115_output_0_splitncnn_0 /Conv_115_output_0_splitncnn_1
Pooling          /GlobalAveragePool_28    1 1 /Conv_115_output_0_splitncnn_1 /GlobalAveragePool_28_output_0 0=1 4=1
InnerProduct     /Conv_116                1 1 /GlobalAveragePool_28_output_0 /Relu_57_output_0 0=4 1=1 2=256 9=1
InnerProduct     /Conv_117                1 1 /Relu_57_output_0 /Sigmoid_28_output_0 0=64 1=1 2=256 9=4
BinaryOp         /Mul_29                  2 1 /Conv_115_output_0_splitncnn_0 /Sigmoid_28_output_0 /Mul_29_output_0 0=2
BinaryOp         /Add_29                  2 1 /Mul_29_output_0 /Add_28_output_0_splitncnn_0 /Add_29_output_0
Split            splitncnn_58             1 2 /Add_29_output_0 /Add_29_output_0_splitncnn_0 /Add_29_output_0_splitncnn_1
Convolution      /Conv_118                1 1 /Add_29_output_0_splitncnn_1 /Relu_58_output_0 0=64 1=3 4=1 5=1 6=36864 9=1
Convolution      /Conv_119                1 1 /Relu_58_output_0 /Conv_119_output_0 0=64 1=3 4=1 5=1 6=36864
Split            splitncnn_59             1 2 /Conv_119_output_0 /Conv_119_output_0_splitncnn_0 /Conv_119_output_0_splitncnn_1
Pooling          /GlobalAveragePool_29    1 1 /Conv_119_output_0_splitncnn_1 /GlobalAveragePool_29_output_0 0=1 4=1
InnerProduct     /Conv_120                1 1 /GlobalAveragePool_29_output_0 /Relu_59_output_0 0=4 1=1 2=256 9=1
InnerProduct     /Conv_121                1 1 /Relu_59_output_0 /Sigmoid_29_output_0 0=64 1=1 2=256 9=4
BinaryOp         /Mul_30                  2 1 /Conv_119_output_0_splitncnn_0 /Sigmoid_29_output_0 /Mul_30_output_0 0=2
BinaryOp         /Add_30                  2 1 /Mul_30_output_0 /Add_29_output_0_splitncnn_0 /Add_30_output_0
Split            splitncnn_60             1 2 /Add_30_output_0 /Add_30_output_0_splitncnn_0 /Add_30_output_0_splitncnn_1
Convolution      /Conv_122                1 1 /Add_30_output_0_splitncnn_1 /Relu_60_output_0 0=64 1=3 4=1 5=1 6=36864 9=1
Convolution      /Conv_123                1 1 /Relu_60_output_0 /Conv_123_output_0 0=64 1=3 4=1 5=1 6=36864
Split            splitncnn_61             1 2 /Conv_123_output_0 /Conv_123_output_0_splitncnn_0 /Conv_123_output_0_splitncnn_1
Pooling          /GlobalAveragePool_30    1 1 /Conv_123_output_0_splitncnn_1 /GlobalAveragePool_30_output_0 0=1 4=1
InnerProduct     /Conv_124                1 1 /GlobalAveragePool_30_output_0 /Relu_61_output_0 0=4 1=1 2=256 9=1
InnerProduct     /Conv_125                1 1 /Relu_61_output_0 /Sigmoid_30_output_0 0=64 1=1 2=256 9=4
BinaryOp         /Mul_31                  2 1 /Conv_123_output_0_splitncnn_0 /Sigmoid_30_output_0 /Mul_31_output_0 0=2
BinaryOp         /Add_31                  2 1 /Mul_31_output_0 /Add_30_output_0_splitncnn_0 /Add_31_output_0
Split            splitncnn_62             1 2 /Add_31_output_0 /Add_31_output_0_splitncnn_0 /Add_31_output_0_splitncnn_1
Convolution      /Conv_126                1 1 /Add_31_output_0_splitncnn_1 /Relu_62_output_0 0=64 1=3 4=1 5=1 6=36864 9=1
Convolution      /Conv_127                1 1 /Relu_62_output_0 /Conv_127_output_0 0=64 1=3 4=1 5=1 6=36864
Split            splitncnn_63             1 2 /Conv_127_output_0 /Conv_127_output_0_splitncnn_0 /Conv_127_output_0_splitncnn_1
Pooling          /GlobalAveragePool_31    1 1 /Conv_127_output_0_splitncnn_1 /GlobalAveragePool_31_output_0 0=1 4=1
InnerProduct     /Conv_128                1 1 /GlobalAveragePool_31_output_0 /Relu_63_output_0 0=4 1=1 2=256 9=1
InnerProduct     /Conv_129                1 1 /Relu_63_output_0 /Sigmoid_31_output_0 0=64 1=1 2=256 9=4
BinaryOp         /Mul_32                  2 1 /Conv_127_output_0_splitncnn_0 /Sigmoid_31_output_0 /Mul_32_output_0 0=2
BinaryOp         /Add_32                  2 1 /Mul_32_output_0 /Add_31_output_0_splitncnn_0 /Add_32_output_0
Split            splitncnn_64             1 2 /Add_32_output_0 /Add_32_output_0_splitncnn_0 /Add_32_output_0_splitncnn_1
Convolution      /Conv_130                1 1 /Add_32_output_0_splitncnn_1 /Relu_64_output_0 0=64 1=3 4=1 5=1 6=36864 9=1
Convolution      /Conv_131                1 1 /Relu_64_output_0 /Conv_131_output_0 0=64 1=3 4=1 5=1 6=36864
Split            splitncnn_65             1 2 /Conv_131_output_0 /Conv_131_output_0_splitncnn_0 /Conv_131_output_0_splitncnn_1
Pooling          /GlobalAveragePool_32    1 1 /Conv_131_output_0_splitncnn_1 /GlobalAveragePool_32_output_0 0=1 4=1
InnerProduct     /Conv_132                1 1 /GlobalAveragePool_32_output_0 /Relu_65_output_0 0=4 1=1 2=256 9=1
InnerProduct     /Conv_133                1 1 /Relu_65_output_0 /Sigmoid_32_output_0 0=64 1=1 2=256 9=4
BinaryOp         /Mul_33                  2 1 /Conv_131_output_0_splitncnn_0 /Sigmoid_32_output_0 /Mul_33_output_0 0=2
BinaryOp         /Add_33                  2 1 /Mul_33_output_0 /Add_32_output_0_splitncnn_0 /Add_33_output_0
Split            splitncnn_66             1 2 /Add_33_output_0 /Add_33_output_0_splitncnn_0 /Add_33_output_0_splitncnn_1
Convolution      /Conv_134                1 1 /Add_33_output_0_splitncnn_1 /Relu_66_output_0 0=64 1=3 4=1 5=1 6=36864 9=1
Convolution      /Conv_135                1 1 /Relu_66_output_0 /Conv_135_output_0 0=64 1=3 4=1 5=1 6=36864
Split            splitncnn_67             1 2 /Conv_135_output_0 /Conv_135_output_0_splitncnn_0 /Conv_135_output_0_splitncnn_1
Pooling          /GlobalAveragePool_33    1 1 /Conv_135_output_0_splitncnn_1 /GlobalAveragePool_33_output_0 0=1 4=1
InnerProduct     /Conv_136                1 1 /GlobalAveragePool_33_output_0 /Relu_67_output_0 0=4 1=1 2=256 9=1
InnerProduct     /Conv_137                1 1 /Relu_67_output_0 /Sigmoid_33_output_0 0=64 1=1 2=256 9=4
BinaryOp         /Mul_34                  2 1 /Conv_135_output_0_splitncnn_0 /Sigmoid_33_output_0 /Mul_34_output_0 0=2
BinaryOp         /Add_34                  2 1 /Mul_34_output_0 /Add_33_output_0_splitncnn_0 /Add_34_output_0
Split            splitncnn_68             1 2 /Add_34_output_0 /Add_34_output_0_splitncnn_0 /Add_34_output_0_splitncnn_1
Convolution      /Conv_138                1 1 /Add_34_output_0_splitncnn_1 /Relu_68_output_0 0=64 1=3 4=1 5=1 6=36864 9=1
Convolution      /Conv_139                1 1 /Relu_68_output_0 /Conv_139_output_0 0=64 1=3 4=1 5=1 6=36864
Split            splitncnn_69             1 2 /Conv_139_output_0 /Conv_139_output_0_splitncnn_0 /Conv_139_output_0_splitncnn_1
Pooling          /GlobalAveragePool_34    1 1 /Conv_139_output_0_splitncnn_1 /GlobalAveragePool_34_output_0 0=1 4=1
InnerProduct     /Conv_140                1 1 /GlobalAveragePool_34_output_0 /Relu_69_output_0 0=4 1=1 2=256 9=1
InnerProduct     /Conv_141                1 1 /Relu_69_output_0 /Sigmoid_34_output_0 0=64 1=1 2=256 9=4
BinaryOp         /Mul_35                  2 1 /Conv_139_output_0_splitncnn_0 /Sigmoid_34_output_0 /Mul_35_output_0 0=2
BinaryOp         /Add_35                  2 1 /Mul_35_output_0 /Add_34_output_0_splitncnn_0 /Add_35_output_0
Split            splitncnn_70             1 2 /Add_35_output_0 /Add_35_output_0_splitncnn_0 /Add_35_output_0_splitncnn_1
Convolution      /Conv_142                1 1 /Add_35_output_0_splitncnn_1 /Relu_70_output_0 0=64 1=3 4=1 5=1 6=36864 9=1
Convolution      /Conv_143                1 1 /Relu_70_output_0 /Conv_143_output_0 0=64 1=3 4=1 5=1 6=36864
Split            splitncnn_71             1 2 /Conv_143_output_0 /Conv_143_output_0_splitncnn_0 /Conv_143_output_0_splitncnn_1
Pooling          /GlobalAveragePool_35    1 1 /Conv_143_output_0_splitncnn_1 /GlobalAveragePool_35_output_0 0=1 4=1
InnerProduct     /Conv_144                1 1 /GlobalAveragePool_35_output_0 /Relu_71_output_0 0=4 1=1 2=256 9=1
InnerProduct     /Conv_145                1 1 /Relu_71_output_0 /Sigmoid_35_output_0 0=64 1=1 2=256 9=4
BinaryOp         /Mul_36                  2 1 /Conv_143_output_0_splitncnn_0 /Sigmoid_35_output_0 /Mul_36_output_0 0=2
BinaryOp         /Add_36                  2 1 /Mul_36_output_0 /Add_35_output_0_splitncnn_0 /Add_36_output_0
Split            splitncnn_72             1 2 /Add_36_output_0 /Add_36_output_0_splitncnn_0 /Add_36_output_0_splitncnn_1
Convolution      /Conv_146                1 1 /Add_36_output_0_splitncnn_1 /Relu_72_output_0 0=64 1=3 4=1 5=1 6=36864 9=1
Convolution      /Conv_147                1 1 /Relu_72_output_0 /Conv_147_output_0 0=64 1=3 4=1 5=1 6=36864
Split            splitncnn_73             1 2 /Conv_147_output_0 /Conv_147_output_0_splitncnn_0 /Conv_147_output_0_splitncnn_1
Pooling          /GlobalAveragePool_36    1 1 /Conv_147_output_0_splitncnn_1 /GlobalAveragePool_36_output_0 0=1 4=1
InnerProduct     /Conv_148                1 1 /GlobalAveragePool_36_output_0 /Relu_73_output_0 0=4 1=1 2=256 9=1
InnerProduct     /Conv_149                1 1 /Relu_73_output_0 /Sigmoid_36_output_0 0=64 1=1 2=256 9=4
BinaryOp         /Mul_37                  2 1 /Conv_147_output_0_splitncnn_0 /Sigmoid_36_output_0 /Mul_37_output_0 0=2
BinaryOp         /Add_37                  2 1 /Mul_37_output_0 /Add_36_output_0_splitncnn_0 /Add_37_output_0
Split            splitncnn_74             1 2 /Add_37_output_0 /Add_37_output_0_splitncnn_0 /Add_37_output_0_splitncnn_1
Convolution      /Conv_150                1 1 /Add_37_output_0_splitncnn_1 /Relu_74_output_0 0=64 1=3 4=1 5=1 6=36864 9=1
Convolution      /Conv_151                1 1 /Relu_74_output_0 /Conv_151_output_0 0=64 1=3 4=1 5=1 6=36864
Split            splitncnn_75             1 2 /Conv_151_output_0 /Conv_151_output_0_splitncnn_0 /Conv_151_output_0_splitncnn_1
Pooling          /GlobalAveragePool_37    1 1 /Conv_151_output_0_splitncnn_1 /GlobalAveragePool_37_output_0 0=1 4=1
InnerProduct     /Conv_152                1 1 /GlobalAveragePool_37_output_0 /Relu_75_output_0 0=4 1=1 2=256 9=1
InnerProduct     /Conv_153                1 1 /Relu_75_output_0 /Sigmoid_37_output_0 0=64 1=1 2=256 9=4
BinaryOp         /Mul_38                  2 1 /Conv_151_output_0_splitncnn_0 /Sigmoid_37_output_0 /Mul_38_output_0 0=2
BinaryOp         /Add_38                  2 1 /Mul_38_output_0 /Add_37_output_0_splitncnn_0 /Add_38_output_0
Split            splitncnn_76             1 2 /Add_38_output_0 /Add_38_output_0_splitncnn_0 /Add_38_output_0_splitncnn_1
Convolution      /Conv_154                1 1 /Add_38_output_0_splitncnn_1 /Relu_76_output_0 0=64 1=3 4=1 5=1 6=36864 9=1
Convolution      /Conv_155                1 1 /Relu_76_output_0 /Conv_155_output_0 0=64 1=3 4=1 5=1 6=36864
Split            splitncnn_77             1 2 /Conv_155_output_0 /Conv_155_output_0_splitncnn_0 /Conv_155_output_0_splitncnn_1
Pooling          /GlobalAveragePool_38    1 1 /Conv_155_output_0_splitncnn_1 /GlobalAveragePool_38_output_0 0=1 4=1
InnerProduct     /Conv_156                1 1 /GlobalAveragePool_38_output_0 /Relu_77_output_0 0=4 1=1 2=256 9=1
InnerProduct     /Conv_157                1 1 /Relu_77_output_0 /Sigmoid_38_output_0 0=64 1=1 2=256 9=4
BinaryOp         /Mul_39                  2 1 /Conv_155_output_0_splitncnn_0 /Sigmoid_38_output_0 /Mul_39_output_0 0=2
BinaryOp         /Add_39                  2 1 /Mul_39_output_0 /Add_38_output_0_splitncnn_0 /Add_39_output_0
Split            splitncnn_78             1 2 /Add_39_output_0 /Add_39_output_0_splitncnn_0 /Add_39_output_0_splitncnn_1
Convolution      /Conv_158                1 1 /Add_39_output_0_splitncnn_1 /Relu_78_output_0 0=64 1=3 4=1 5=1 6=36864 9=1
Convolution      /Conv_159                1 1 /Relu_78_output_0 /Conv_159_output_0 0=64 1=3 4=1 5=1 6=36864
Split            splitncnn_79             1 2 /Conv_159_output_0 /Conv_159_output_0_splitncnn_0 /Conv_159_output_0_splitncnn_1
Pooling          /GlobalAveragePool_39    1 1 /Conv_159_output_0_splitncnn_1 /GlobalAveragePool_39_output_0 0=1 4=1
InnerProduct     /Conv_160                1 1 /GlobalAveragePool_39_output_0 /Relu_79_output_0 0=4 1=1 2=256 9=1
InnerProduct     /Conv_161                1 1 /Relu_79_output_0 /Sigmoid_39_output_0 0=64 1=1 2=256 9=4
BinaryOp         /Mul_40                  2 1 /Conv_159_output_0_splitncnn_0 /Sigmoid_39_output_0 /Mul_40_output_0 0=2
BinaryOp         /Add_40                  2 1 /Mul_40_output_0 /Add_39_output_0_splitncnn_0 /Add_40_output_0
Convolution      /Conv_162                1 1 /Add_40_output_0 /Conv_162_output_0 0=64 1=3 4=1 5=1 6=36864
BinaryOp         /Add_41                  2 1 /Conv_162_output_0 /Add_20_output_0_splitncnn_0 /Add_41_output_0
Split            splitncnn_80             1 3 /Add_41_output_0 /Add_41_output_0_splitncnn_0 /Add_41_output_0_splitncnn_1 /Add_41_output_0_splitncnn_2
Convolution      /Conv_163                1 1 /Add_41_output_0_splitncnn_2 /Relu_80_output_0 0=64 1=3 4=1 5=1 6=36864 9=1
Convolution      /Conv_164                1 1 /Relu_80_output_0 /Conv_164_output_0 0=64 1=3 4=1 5=1 6=36864
Split            splitncnn_81             1 2 /Conv_164_output_0 /Conv_164_output_0_splitncnn_0 /Conv_164_output_0_splitncnn_1
Pooling          /GlobalAveragePool_40    1 1 /Conv_164_output_0_splitncnn_1 /GlobalAveragePool_40_output_0 0=1 4=1
InnerProduct     /Conv_165                1 1 /GlobalAveragePool_40_output_0 /Relu_81_output_0 0=4 1=1 2=256 9=1
InnerProduct     /Conv_166                1 1 /Relu_81_output_0 /Sigmoid_40_output_0 0=64 1=1 2=256 9=4
BinaryOp         /Mul_41                  2 1 /Conv_164_output_0_splitncnn_0 /Sigmoid_40_output_0 /Mul_41_output_0 0=2
BinaryOp         /Add_42                  2 1 /Mul_41_output_0 /Add_41_output_0_splitncnn_1 /Add_42_output_0
Split            splitncnn_82             1 2 /Add_42_output_0 /Add_42_output_0_splitncnn_0 /Add_42_output_0_splitncnn_1
Convolution      /Conv_167                1 1 /Add_42_output_0_splitncnn_1 /Relu_82_output_0 0=64 1=3 4=1 5=1 6=36864 9=1
Convolution      /Conv_168                1 1 /Relu_82_output_0 /Conv_168_output_0 0=64 1=3 4=1 5=1 6=36864
Split            splitncnn_83             1 2 /Conv_168_output_0 /Conv_168_output_0_splitncnn_0 /Conv_168_output_0_splitncnn_1
Pooling          /GlobalAveragePool_41    1 1 /Conv_168_output_0_splitncnn_1 /GlobalAveragePool_41_output_0 0=1 4=1
InnerProduct     /Conv_169                1 1 /GlobalAveragePool_41_output_0 /Relu_83_output_0 0=4 1=1 2=256 9=1
InnerProduct     /Conv_170                1 1 /Relu_83_output_0 /Sigmoid_41_output_0 0=64 1=1 2=256 9=4
BinaryOp         /Mul_42                  2 1 /Conv_168_output_0_splitncnn_0 /Sigmoid_41_output_0 /Mul_42_output_0 0=2
BinaryOp         /Add_43                  2 1 /Mul_42_output_0 /Add_42_output_0_splitncnn_0 /Add_43_output_0
Split            splitncnn_84             1 2 /Add_43_output_0 /Add_43_output_0_splitncnn_0 /Add_43_output_0_splitncnn_1
Convolution      /Conv_171                1 1 /Add_43_output_0_splitncnn_1 /Relu_84_output_0 0=64 1=3 4=1 5=1 6=36864 9=1
Convolution      /Conv_172                1 1 /Relu_84_output_0 /Conv_172_output_0 0=64 1=3 4=1 5=1 6=36864
Split            splitncnn_85             1 2 /Conv_172_output_0 /Conv_172_output_0_splitncnn_0 /Conv_172_output_0_splitncnn_1
Pooling          /GlobalAveragePool_42    1 1 /Conv_172_output_0_splitncnn_1 /GlobalAveragePool_42_output_0 0=1 4=1
InnerProduct     /Conv_173                1 1 /GlobalAveragePool_42_output_0 /Relu_85_output_0 0=4 1=1 2=256 9=1
InnerProduct     /Conv_174                1 1 /Relu_85_output_0 /Sigmoid_42_output_0 0=64 1=1 2=256 9=4
BinaryOp         /Mul_43                  2 1 /Conv_172_output_0_splitncnn_0 /Sigmoid_42_output_0 /Mul_43_output_0 0=2
BinaryOp         /Add_44                  2 1 /Mul_43_output_0 /Add_43_output_0_splitncnn_0 /Add_44_output_0
Split            splitncnn_86             1 2 /Add_44_output_0 /Add_44_output_0_splitncnn_0 /Add_44_output_0_splitncnn_1
Convolution      /Conv_175                1 1 /Add_44_output_0_splitncnn_1 /Relu_86_output_0 0=64 1=3 4=1 5=1 6=36864 9=1
Convolution      /Conv_176                1 1 /Relu_86_output_0 /Conv_176_output_0 0=64 1=3 4=1 5=1 6=36864
Split            splitncnn_87             1 2 /Conv_176_output_0 /Conv_176_output_0_splitncnn_0 /Conv_176_output_0_splitncnn_1
Pooling          /GlobalAveragePool_43    1 1 /Conv_176_output_0_splitncnn_1 /GlobalAveragePool_43_output_0 0=1 4=1
InnerProduct     /Conv_177                1 1 /GlobalAveragePool_43_output_0 /Relu_87_output_0 0=4 1=1 2=256 9=1
InnerProduct     /Conv_178                1 1 /Relu_87_output_0 /Sigmoid_43_output_0 0=64 1=1 2=256 9=4
BinaryOp         /Mul_44                  2 1 /Conv_176_output_0_splitncnn_0 /Sigmoid_43_output_0 /Mul_44_output_0 0=2
BinaryOp         /Add_45                  2 1 /Mul_44_output_0 /Add_44_output_0_splitncnn_0 /Add_45_output_0
Split            splitncnn_88             1 2 /Add_45_output_0 /Add_45_output_0_splitncnn_0 /Add_45_output_0_splitncnn_1
Convolution      /Conv_179                1 1 /Add_45_output_0_splitncnn_1 /Relu_88_output_0 0=64 1=3 4=1 5=1 6=36864 9=1
Convolution      /Conv_180                1 1 /Relu_88_output_0 /Conv_180_output_0 0=64 1=3 4=1 5=1 6=36864
Split            splitncnn_89             1 2 /Conv_180_output_0 /Conv_180_output_0_splitncnn_0 /Conv_180_output_0_splitncnn_1
Pooling          /GlobalAveragePool_44    1 1 /Conv_180_output_0_splitncnn_1 /GlobalAveragePool_44_output_0 0=1 4=1
InnerProduct     /Conv_181                1 1 /GlobalAveragePool_44_output_0 /Relu_89_output_0 0=4 1=1 2=256 9=1
InnerProduct     /Conv_182                1 1 /Relu_89_output_0 /Sigmoid_44_output_0 0=64 1=1 2=256 9=4
BinaryOp         /Mul_45                  2 1 /Conv_180_output_0_splitncnn_0 /Sigmoid_44_output_0 /Mul_45_output_0 0=2
BinaryOp         /Add_46                  2 1 /Mul_45_output_0 /Add_45_output_0_splitncnn_0 /Add_46_output_0
Split            splitncnn_90             1 2 /Add_46_output_0 /Add_46_output_0_splitncnn_0 /Add_46_output_0_splitncnn_1
Convolution      /Conv_183                1 1 /Add_46_output_0_splitncnn_1 /Relu_90_output_0 0=64 1=3 4=1 5=1 6=36864 9=1
Convolution      /Conv_184                1 1 /Relu_90_output_0 /Conv_184_output_0 0=64 1=3 4=1 5=1 6=36864
Split            splitncnn_91             1 2 /Conv_184_output_0 /Conv_184_output_0_splitncnn_0 /Conv_184_output_0_splitncnn_1
Pooling          /GlobalAveragePool_45    1 1 /Conv_184_output_0_splitncnn_1 /GlobalAveragePool_45_output_0 0=1 4=1
InnerProduct     /Conv_185                1 1 /GlobalAveragePool_45_output_0 /Relu_91_output_0 0=4 1=1 2=256 9=1
InnerProduct     /Conv_186                1 1 /Relu_91_output_0 /Sigmoid_45_output_0 0=64 1=1 2=256 9=4
BinaryOp         /Mul_46                  2 1 /Conv_184_output_0_splitncnn_0 /Sigmoid_45_output_0 /Mul_46_output_0 0=2
BinaryOp         /Add_47                  2 1 /Mul_46_output_0 /Add_46_output_0_splitncnn_0 /Add_47_output_0
Split            splitncnn_92             1 2 /Add_47_output_0 /Add_47_output_0_splitncnn_0 /Add_47_output_0_splitncnn_1
Convolution      /Conv_187                1 1 /Add_47_output_0_splitncnn_1 /Relu_92_output_0 0=64 1=3 4=1 5=1 6=36864 9=1
Convolution      /Conv_188                1 1 /Relu_92_output_0 /Conv_188_output_0 0=64 1=3 4=1 5=1 6=36864
Split            splitncnn_93             1 2 /Conv_188_output_0 /Conv_188_output_0_splitncnn_0 /Conv_188_output_0_splitncnn_1
Pooling          /GlobalAveragePool_46    1 1 /Conv_188_output_0_splitncnn_1 /GlobalAveragePool_46_output_0 0=1 4=1
InnerProduct     /Conv_189                1 1 /GlobalAveragePool_46_output_0 /Relu_93_output_0 0=4 1=1 2=256 9=1
InnerProduct     /Conv_190                1 1 /Relu_93_output_0 /Sigmoid_46_output_0 0=64 1=1 2=256 9=4
BinaryOp         /Mul_47                  2 1 /Conv_188_output_0_splitncnn_0 /Sigmoid_46_output_0 /Mul_47_output_0 0=2
BinaryOp         /Add_48                  2 1 /Mul_47_output_0 /Add_47_output_0_splitncnn_0 /Add_48_output_0
Split            splitncnn_94             1 2 /Add_48_output_0 /Add_48_output_0_splitncnn_0 /Add_48_output_0_splitncnn_1
Convolution      /Conv_191                1 1 /Add_48_output_0_splitncnn_1 /Relu_94_output_0 0=64 1=3 4=1 5=1 6=36864 9=1
Convolution      /Conv_192                1 1 /Relu_94_output_0 /Conv_192_output_0 0=64 1=3 4=1 5=1 6=36864
Split            splitncnn_95             1 2 /Conv_192_output_0 /Conv_192_output_0_splitncnn_0 /Conv_192_output_0_splitncnn_1
Pooling          /GlobalAveragePool_47    1 1 /Conv_192_output_0_splitncnn_1 /GlobalAveragePool_47_output_0 0=1 4=1
InnerProduct     /Conv_193                1 1 /GlobalAveragePool_47_output_0 /Relu_95_output_0 0=4 1=1 2=256 9=1
InnerProduct     /Conv_194                1 1 /Relu_95_output_0 /Sigmoid_47_output_0 0=64 1=1 2=256 9=4
BinaryOp         /Mul_48                  2 1 /Conv_192_output_0_splitncnn_0 /Sigmoid_47_output_0 /Mul_48_output_0 0=2
BinaryOp         /Add_49                  2 1 /Mul_48_output_0 /Add_48_output_0_splitncnn_0 /Add_49_output_0
Split            splitncnn_96             1 2 /Add_49_output_0 /Add_49_output_0_splitncnn_0 /Add_49_output_0_splitncnn_1
Convolution      /Conv_195                1 1 /Add_49_output_0_splitncnn_1 /Relu_96_output_0 0=64 1=3 4=1 5=1 6=36864 9=1
Convolution      /Conv_196                1 1 /Relu_96_output_0 /Conv_196_output_0 0=64 1=3 4=1 5=1 6=36864
Split            splitncnn_97             1 2 /Conv_196_output_0 /Conv_196_output_0_splitncnn_0 /Conv_196_output_0_splitncnn_1
Pooling          /GlobalAveragePool_48    1 1 /Conv_196_output_0_splitncnn_1 /GlobalAveragePool_48_output_0 0=1 4=1
InnerProduct     /Conv_197                1 1 /GlobalAveragePool_48_output_0 /Relu_97_output_0 0=4 1=1 2=256 9=1
InnerProduct     /Conv_198                1 1 /Relu_97_output_0 /Sigmoid_48_output_0 0=64 1=1 2=256 9=4
BinaryOp         /Mul_49                  2 1 /Conv_196_output_0_splitncnn_0 /Sigmoid_48_output_0 /Mul_49_output_0 0=2
BinaryOp         /Add_50                  2 1 /Mul_49_output_0 /Add_49_output_0_splitncnn_0 /Add_50_output_0
Split            splitncnn_98             1 2 /Add_50_output_0 /Add_50_output_0_splitncnn_0 /Add_50_output_0_splitncnn_1
Convolution      /Conv_199                1 1 /Add_50_output_0_splitncnn_1 /Relu_98_output_0 0=64 1=3 4=1 5=1 6=36864 9=1
Convolution      /Conv_200                1 1 /Relu_98_output_0 /Conv_200_output_0 0=64 1=3 4=1 5=1 6=36864
Split            splitncnn_99             1 2 /Conv_200_output_0 /Conv_200_output_0_splitncnn_0 /Conv_200_output_0_splitncnn_1
Pooling          /GlobalAveragePool_49    1 1 /Conv_200_output_0_splitncnn_1 /GlobalAveragePool_49_output_0 0=1 4=1
InnerProduct     /Conv_201                1 1 /GlobalAveragePool_49_output_0 /Relu_99_output_0 0=4 1=1 2=256 9=1
InnerProduct     /Conv_202                1 1 /Relu_99_output_0 /Sigmoid_49_output_0 0=64 1=1 2=256 9=4
BinaryOp         /Mul_50                  2 1 /Conv_200_output_0_splitncnn_0 /Sigmoid_49_output_0 /Mul_50_output_0 0=2
BinaryOp         /Add_51                  2 1 /Mul_50_output_0 /Add_50_output_0_splitncnn_0 /Add_51_output_0
Split            splitncnn_100            1 2 /Add_51_output_0 /Add_51_output_0_splitncnn_0 /Add_51_output_0_splitncnn_1
Convolution      /Conv_203                1 1 /Add_51_output_0_splitncnn_1 /Relu_100_output_0 0=64 1=3 4=1 5=1 6=36864 9=1
Convolution      /Conv_204                1 1 /Relu_100_output_0 /Conv_204_output_0 0=64 1=3 4=1 5=1 6=36864
Split            splitncnn_101            1 2 /Conv_204_output_0 /Conv_204_output_0_splitncnn_0 /Conv_204_output_0_splitncnn_1
Pooling          /GlobalAveragePool_50    1 1 /Conv_204_output_0_splitncnn_1 /GlobalAveragePool_50_output_0 0=1 4=1
InnerProduct     /Conv_205                1 1 /GlobalAveragePool_50_output_0 /Relu_101_output_0 0=4 1=1 2=256 9=1
InnerProduct     /Conv_206                1 1 /Relu_101_output_0 /Sigmoid_50_output_0 0=64 1=1 2=256 9=4
BinaryOp         /Mul_51                  2 1 /Conv_204_output_0_splitncnn_0 /Sigmoid_50_output_0 /Mul_51_output_0 0=2
BinaryOp         /Add_52                  2 1 /Mul_51_output_0 /Add_51_output_0_splitncnn_0 /Add_52_output_0
Split            splitncnn_102            1 2 /Add_52_output_0 /Add_52_output_0_splitncnn_0 /Add_52_output_0_splitncnn_1
Convolution      /Conv_207                1 1 /Add_52_output_0_splitncnn_1 /Relu_102_output_0 0=64 1=3 4=1 5=1 6=36864 9=1
Convolution      /Conv_208                1 1 /Relu_102_output_0 /Conv_208_output_0 0=64 1=3 4=1 5=1 6=36864
Split            splitncnn_103            1 2 /Conv_208_output_0 /Conv_208_output_0_splitncnn_0 /Conv_208_output_0_splitncnn_1
Pooling          /GlobalAveragePool_51    1 1 /Conv_208_output_0_splitncnn_1 /GlobalAveragePool_51_output_0 0=1 4=1
InnerProduct     /Conv_209                1 1 /GlobalAveragePool_51_output_0 /Relu_103_output_0 0=4 1=1 2=256 9=1
InnerProduct     /Conv_210                1 1 /Relu_103_output_0 /Sigmoid_51_output_0 0=64 1=1 2=256 9=4
BinaryOp         /Mul_52                  2 1 /Conv_208_output_0_splitncnn_0 /Sigmoid_51_output_0 /Mul_52_output_0 0=2
BinaryOp         /Add_53                  2 1 /Mul_52_output_0 /Add_52_output_0_splitncnn_0 /Add_53_output_0
Split            splitncnn_104            1 2 /Add_53_output_0 /Add_53_output_0_splitncnn_0 /Add_53_output_0_splitncnn_1
Convolution      /Conv_211                1 1 /Add_53_output_0_splitncnn_1 /Relu_104_output_0 0=64 1=3 4=1 5=1 6=36864 9=1
Convolution      /Conv_212                1 1 /Relu_104_output_0 /Conv_212_output_0 0=64 1=3 4=1 5=1 6=36864
Split            splitncnn_105            1 2 /Conv_212_output_0 /Conv_212_output_0_splitncnn_0 /Conv_212_output_0_splitncnn_1
Pooling          /GlobalAveragePool_52    1 1 /Conv_212_output_0_splitncnn_1 /GlobalAveragePool_52_output_0 0=1 4=1
InnerProduct     /Conv_213                1 1 /GlobalAveragePool_52_output_0 /Relu_105_output_0 0=4 1=1 2=256 9=1
InnerProduct     /Conv_214                1 1 /Relu_105_output_0 /Sigmoid_52_output_0 0=64 1=1 2=256 9=4
BinaryOp         /Mul_53                  2 1 /Conv_212_output_0_splitncnn_0 /Sigmoid_52_output_0 /Mul_53_output_0 0=2
BinaryOp         /Add_54                  2 1 /Mul_53_output_0 /Add_53_output_0_splitncnn_0 /Add_54_output_0
Split            splitncnn_106            1 2 /Add_54_output_0 /Add_54_output_0_splitncnn_0 /Add_54_output_0_splitncnn_1
Convolution      /Conv_215                1 1 /Add_54_output_0_splitncnn_1 /Relu_106_output_0 0=64 1=3 4=1 5=1 6=36864 9=1
Convolution      /Conv_216                1 1 /Relu_106_output_0 /Conv_216_output_0 0=64 1=3 4=1 5=1 6=36864
Split            splitncnn_107            1 2 /Conv_216_output_0 /Conv_216_output_0_splitncnn_0 /Conv_216_output_0_splitncnn_1
Pooling          /GlobalAveragePool_53    1 1 /Conv_216_output_0_splitncnn_1 /GlobalAveragePool_53_output_0 0=1 4=1
InnerProduct     /Conv_217                1 1 /GlobalAveragePool_53_output_0 /Relu_107_output_0 0=4 1=1 2=256 9=1
InnerProduct     /Conv_218                1 1 /Relu_107_output_0 /Sigmoid_53_output_0 0=64 1=1 2=256 9=4
BinaryOp         /Mul_54                  2 1 /Conv_216_output_0_splitncnn_0 /Sigmoid_53_output_0 /Mul_54_output_0 0=2
BinaryOp         /Add_55                  2 1 /Mul_54_output_0 /Add_54_output_0_splitncnn_0 /Add_55_output_0
Split            splitncnn_108            1 2 /Add_55_output_0 /Add_55_output_0_splitncnn_0 /Add_55_output_0_splitncnn_1
Convolution      /Conv_219                1 1 /Add_55_output_0_splitncnn_1 /Relu_108_output_0 0=64 1=3 4=1 5=1 6=36864 9=1
Convolution      /Conv_220                1 1 /Relu_108_output_0 /Conv_220_output_0 0=64 1=3 4=1 5=1 6=36864
Split            splitncnn_109            1 2 /Conv_220_output_0 /Conv_220_output_0_splitncnn_0 /Conv_220_output_0_splitncnn_1
Pooling          /GlobalAveragePool_54    1 1 /Conv_220_output_0_splitncnn_1 /GlobalAveragePool_54_output_0 0=1 4=1
InnerProduct     /Conv_221                1 1 /GlobalAveragePool_54_output_0 /Relu_109_output_0 0=4 1=1 2=256 9=1
InnerProduct     /Conv_222                1 1 /Relu_109_output_0 /Sigmoid_54_output_0 0=64 1=1 2=256 9=4
BinaryOp         /Mul_55                  2 1 /Conv_220_output_0_splitncnn_0 /Sigmoid_54_output_0 /Mul_55_output_0 0=2
BinaryOp         /Add_56                  2 1 /Mul_55_output_0 /Add_55_output_0_splitncnn_0 /Add_56_output_0
Split            splitncnn_110            1 2 /Add_56_output_0 /Add_56_output_0_splitncnn_0 /Add_56_output_0_splitncnn_1
Convolution      /Conv_223                1 1 /Add_56_output_0_splitncnn_1 /Relu_110_output_0 0=64 1=3 4=1 5=1 6=36864 9=1
Convolution      /Conv_224                1 1 /Relu_110_output_0 /Conv_224_output_0 0=64 1=3 4=1 5=1 6=36864
Split            splitncnn_111            1 2 /Conv_224_output_0 /Conv_224_output_0_splitncnn_0 /Conv_224_output_0_splitncnn_1
Pooling          /GlobalAveragePool_55    1 1 /Conv_224_output_0_splitncnn_1 /GlobalAveragePool_55_output_0 0=1 4=1
InnerProduct     /Conv_225                1 1 /GlobalAveragePool_55_output_0 /Relu_111_output_0 0=4 1=1 2=256 9=1
InnerProduct     /Conv_226                1 1 /Relu_111_output_0 /Sigmoid_55_output_0 0=64 1=1 2=256 9=4
BinaryOp         /Mul_56                  2 1 /Conv_224_output_0_splitncnn_0 /Sigmoid_55_output_0 /Mul_56_output_0 0=2
BinaryOp         /Add_57                  2 1 /Mul_56_output_0 /Add_56_output_0_splitncnn_0 /Add_57_output_0
Split            splitncnn_112            1 2 /Add_57_output_0 /Add_57_output_0_splitncnn_0 /Add_57_output_0_splitncnn_1
Convolution      /Conv_227                1 1 /Add_57_output_0_splitncnn_1 /Relu_112_output_0 0=64 1=3 4=1 5=1 6=36864 9=1
Convolution      /Conv_228                1 1 /Relu_112_output_0 /Conv_228_output_0 0=64 1=3 4=1 5=1 6=36864
Split            splitncnn_113            1 2 /Conv_228_output_0 /Conv_228_output_0_splitncnn_0 /Conv_228_output_0_splitncnn_1
Pooling          /GlobalAveragePool_56    1 1 /Conv_228_output_0_splitncnn_1 /GlobalAveragePool_56_output_0 0=1 4=1
InnerProduct     /Conv_229                1 1 /GlobalAveragePool_56_output_0 /Relu_113_output_0 0=4 1=1 2=256 9=1
InnerProduct     /Conv_230                1 1 /Relu_113_output_0 /Sigmoid_56_output_0 0=64 1=1 2=256 9=4
BinaryOp         /Mul_57                  2 1 /Conv_228_output_0_splitncnn_0 /Sigmoid_56_output_0 /Mul_57_output_0 0=2
BinaryOp         /Add_58                  2 1 /Mul_57_output_0 /Add_57_output_0_splitncnn_0 /Add_58_output_0
Split            splitncnn_114            1 2 /Add_58_output_0 /Add_58_output_0_splitncnn_0 /Add_58_output_0_splitncnn_1
Convolution      /Conv_231                1 1 /Add_58_output_0_splitncnn_1 /Relu_114_output_0 0=64 1=3 4=1 5=1 6=36864 9=1
Convolution      /Conv_232                1 1 /Relu_114_output_0 /Conv_232_output_0 0=64 1=3 4=1 5=1 6=36864
Split            splitncnn_115            1 2 /Conv_232_output_0 /Conv_232_output_0_splitncnn_0 /Conv_232_output_0_splitncnn_1
Pooling          /GlobalAveragePool_57    1 1 /Conv_232_output_0_splitncnn_1 /GlobalAveragePool_57_output_0 0=1 4=1
InnerProduct     /Conv_233                1 1 /GlobalAveragePool_57_output_0 /Relu_115_output_0 0=4 1=1 2=256 9=1
InnerProduct     /Conv_234                1 1 /Relu_115_output_0 /Sigmoid_57_output_0 0=64 1=1 2=256 9=4
BinaryOp         /Mul_58                  2 1 /Conv_232_output_0_splitncnn_0 /Sigmoid_57_output_0 /Mul_58_output_0 0=2
BinaryOp         /Add_59                  2 1 /Mul_58_output_0 /Add_58_output_0_splitncnn_0 /Add_59_output_0
Split            splitncnn_116            1 2 /Add_59_output_0 /Add_59_output_0_splitncnn_0 /Add_59_output_0_splitncnn_1
Convolution      /Conv_235                1 1 /Add_59_output_0_splitncnn_1 /Relu_116_output_0 0=64 1=3 4=1 5=1 6=36864 9=1
Convolution      /Conv_236                1 1 /Relu_116_output_0 /Conv_236_output_0 0=64 1=3 4=1 5=1 6=36864
Split            splitncnn_117            1 2 /Conv_236_output_0 /Conv_236_output_0_splitncnn_0 /Conv_236_output_0_splitncnn_1
Pooling          /GlobalAveragePool_58    1 1 /Conv_236_output_0_splitncnn_1 /GlobalAveragePool_58_output_0 0=1 4=1
InnerProduct     /Conv_237                1 1 /GlobalAveragePool_58_output_0 /Relu_117_output_0 0=4 1=1 2=256 9=1
InnerProduct     /Conv_238                1 1 /Relu_117_output_0 /Sigmoid_58_output_0 0=64 1=1 2=256 9=4
BinaryOp         /Mul_59                  2 1 /Conv_236_output_0_splitncnn_0 /Sigmoid_58_output_0 /Mul_59_output_0 0=2
BinaryOp         /Add_60                  2 1 /Mul_59_output_0 /Add_59_output_0_splitncnn_0 /Add_60_output_0
Split            splitncnn_118            1 2 /Add_60_output_0 /Add_60_output_0_splitncnn_0 /Add_60_output_0_splitncnn_1
Convolution      /Conv_239                1 1 /Add_60_output_0_splitncnn_1 /Relu_118_output_0 0=64 1=3 4=1 5=1 6=36864 9=1
Convolution      /Conv_240                1 1 /Relu_118_output_0 /Conv_240_output_0 0=64 1=3 4=1 5=1 6=36864
Split            splitncnn_119            1 2 /Conv_240_output_0 /Conv_240_output_0_splitncnn_0 /Conv_240_output_0_splitncnn_1
Pooling          /GlobalAveragePool_59    1 1 /Conv_240_output_0_splitncnn_1 /GlobalAveragePool_59_output_0 0=1 4=1
InnerProduct     /Conv_241                1 1 /GlobalAveragePool_59_output_0 /Relu_119_output_0 0=4 1=1 2=256 9=1
InnerProduct     /Conv_242                1 1 /Relu_119_output_0 /Sigmoid_59_output_0 0=64 1=1 2=256 9=4
BinaryOp         /Mul_60                  2 1 /Conv_240_output_0_splitncnn_0 /Sigmoid_59_output_0 /Mul_60_output_0 0=2
BinaryOp         /Add_61                  2 1 /Mul_60_output_0 /Add_60_output_0_splitncnn_0 /Add_61_output_0
Convolution      /Conv_243                1 1 /Add_61_output_0 /Conv_243_output_0 0=64 1=3 4=1 5=1 6=36864
BinaryOp         /Add_62                  2 1 /Conv_243_output_0 /Add_41_output_0_splitncnn_0 /Add_62_output_0
Split            splitncnn_120            1 3 /Add_62_output_0 /Add_62_output_0_splitncnn_0 /Add_62_output_0_splitncnn_1 /Add_62_output_0_splitncnn_2
Convolution      /Conv_244                1 1 /Add_62_output_0_splitncnn_2 /Relu_120_output_0 0=64 1=3 4=1 5=1 6=36864 9=1
Convolution      /Conv_245                1 1 /Relu_120_output_0 /Conv_245_output_0 0=64 1=3 4=1 5=1 6=36864
Split            splitncnn_121            1 2 /Conv_245_output_0 /Conv_245_output_0_splitncnn_0 /Conv_245_output_0_splitncnn_1
Pooling          /GlobalAveragePool_60    1 1 /Conv_245_output_0_splitncnn_1 /GlobalAveragePool_60_output_0 0=1 4=1
InnerProduct     /Conv_246                1 1 /GlobalAveragePool_60_output_0 /Relu_121_output_0 0=4 1=1 2=256 9=1
InnerProduct     /Conv_247                1 1 /Relu_121_output_0 /Sigmoid_60_output_0 0=64 1=1 2=256 9=4
BinaryOp         /Mul_61                  2 1 /Conv_245_output_0_splitncnn_0 /Sigmoid_60_output_0 /Mul_61_output_0 0=2
BinaryOp         /Add_63                  2 1 /Mul_61_output_0 /Add_62_output_0_splitncnn_1 /Add_63_output_0
Split            splitncnn_122            1 2 /Add_63_output_0 /Add_63_output_0_splitncnn_0 /Add_63_output_0_splitncnn_1
Convolution      /Conv_248                1 1 /Add_63_output_0_splitncnn_1 /Relu_122_output_0 0=64 1=3 4=1 5=1 6=36864 9=1
Convolution      /Conv_249                1 1 /Relu_122_output_0 /Conv_249_output_0 0=64 1=3 4=1 5=1 6=36864
Split            splitncnn_123            1 2 /Conv_249_output_0 /Conv_249_output_0_splitncnn_0 /Conv_249_output_0_splitncnn_1
Pooling          /GlobalAveragePool_61    1 1 /Conv_249_output_0_splitncnn_1 /GlobalAveragePool_61_output_0 0=1 4=1
InnerProduct     /Conv_250                1 1 /GlobalAveragePool_61_output_0 /Relu_123_output_0 0=4 1=1 2=256 9=1
InnerProduct     /Conv_251                1 1 /Relu_123_output_0 /Sigmoid_61_output_0 0=64 1=1 2=256 9=4
BinaryOp         /Mul_62                  2 1 /Conv_249_output_0_splitncnn_0 /Sigmoid_61_output_0 /Mul_62_output_0 0=2
BinaryOp         /Add_64                  2 1 /Mul_62_output_0 /Add_63_output_0_splitncnn_0 /Add_64_output_0
Split            splitncnn_124            1 2 /Add_64_output_0 /Add_64_output_0_splitncnn_0 /Add_64_output_0_splitncnn_1
Convolution      /Conv_252                1 1 /Add_64_output_0_splitncnn_1 /Relu_124_output_0 0=64 1=3 4=1 5=1 6=36864 9=1
Convolution      /Conv_253                1 1 /Relu_124_output_0 /Conv_253_output_0 0=64 1=3 4=1 5=1 6=36864
Split            splitncnn_125            1 2 /Conv_253_output_0 /Conv_253_output_0_splitncnn_0 /Conv_253_output_0_splitncnn_1
Pooling          /GlobalAveragePool_62    1 1 /Conv_253_output_0_splitncnn_1 /GlobalAveragePool_62_output_0 0=1 4=1
InnerProduct     /Conv_254                1 1 /GlobalAveragePool_62_output_0 /Relu_125_output_0 0=4 1=1 2=256 9=1
InnerProduct     /Conv_255                1 1 /Relu_125_output_0 /Sigmoid_62_output_0 0=64 1=1 2=256 9=4
BinaryOp         /Mul_63                  2 1 /Conv_253_output_0_splitncnn_0 /Sigmoid_62_output_0 /Mul_63_output_0 0=2
BinaryOp         /Add_65                  2 1 /Mul_63_output_0 /Add_64_output_0_splitncnn_0 /Add_65_output_0
Split            splitncnn_126            1 2 /Add_65_output_0 /Add_65_output_0_splitncnn_0 /Add_65_output_0_splitncnn_1
Convolution      /Conv_256                1 1 /Add_65_output_0_splitncnn_1 /Relu_126_output_0 0=64 1=3 4=1 5=1 6=36864 9=1
Convolution      /Conv_257                1 1 /Relu_126_output_0 /Conv_257_output_0 0=64 1=3 4=1 5=1 6=36864
Split            splitncnn_127            1 2 /Conv_257_output_0 /Conv_257_output_0_splitncnn_0 /Conv_257_output_0_splitncnn_1
Pooling          /GlobalAveragePool_63    1 1 /Conv_257_output_0_splitncnn_1 /GlobalAveragePool_63_output_0 0=1 4=1
InnerProduct     /Conv_258                1 1 /GlobalAveragePool_63_output_0 /Relu_127_output_0 0=4 1=1 2=256 9=1
InnerProduct     /Conv_259                1 1 /Relu_127_output_0 /Sigmoid_63_output_0 0=64 1=1 2=256 9=4
BinaryOp         /Mul_64                  2 1 /Conv_257_output_0_splitncnn_0 /Sigmoid_63_output_0 /Mul_64_output_0 0=2
BinaryOp         /Add_66                  2 1 /Mul_64_output_0 /Add_65_output_0_splitncnn_0 /Add_66_output_0
Split            splitncnn_128            1 2 /Add_66_output_0 /Add_66_output_0_splitncnn_0 /Add_66_output_0_splitncnn_1
Convolution      /Conv_260                1 1 /Add_66_output_0_splitncnn_1 /Relu_128_output_0 0=64 1=3 4=1 5=1 6=36864 9=1
Convolution      /Conv_261                1 1 /Relu_128_output_0 /Conv_261_output_0 0=64 1=3 4=1 5=1 6=36864
Split            splitncnn_129            1 2 /Conv_261_output_0 /Conv_261_output_0_splitncnn_0 /Conv_261_output_0_splitncnn_1
Pooling          /GlobalAveragePool_64    1 1 /Conv_261_output_0_splitncnn_1 /GlobalAveragePool_64_output_0 0=1 4=1
InnerProduct     /Conv_262                1 1 /GlobalAveragePool_64_output_0 /Relu_129_output_0 0=4 1=1 2=256 9=1
InnerProduct     /Conv_263                1 1 /Relu_129_output_0 /Sigmoid_64_output_0 0=64 1=1 2=256 9=4
BinaryOp         /Mul_65                  2 1 /Conv_261_output_0_splitncnn_0 /Sigmoid_64_output_0 /Mul_65_output_0 0=2
BinaryOp         /Add_67                  2 1 /Mul_65_output_0 /Add_66_output_0_splitncnn_0 /Add_67_output_0
Split            splitncnn_130            1 2 /Add_67_output_0 /Add_67_output_0_splitncnn_0 /Add_67_output_0_splitncnn_1
Convolution      /Conv_264                1 1 /Add_67_output_0_splitncnn_1 /Relu_130_output_0 0=64 1=3 4=1 5=1 6=36864 9=1
Convolution      /Conv_265                1 1 /Relu_130_output_0 /Conv_265_output_0 0=64 1=3 4=1 5=1 6=36864
Split            splitncnn_131            1 2 /Conv_265_output_0 /Conv_265_output_0_splitncnn_0 /Conv_265_output_0_splitncnn_1
Pooling          /GlobalAveragePool_65    1 1 /Conv_265_output_0_splitncnn_1 /GlobalAveragePool_65_output_0 0=1 4=1
InnerProduct     /Conv_266                1 1 /GlobalAveragePool_65_output_0 /Relu_131_output_0 0=4 1=1 2=256 9=1
InnerProduct     /Conv_267                1 1 /Relu_131_output_0 /Sigmoid_65_output_0 0=64 1=1 2=256 9=4
BinaryOp         /Mul_66                  2 1 /Conv_265_output_0_splitncnn_0 /Sigmoid_65_output_0 /Mul_66_output_0 0=2
BinaryOp         /Add_68                  2 1 /Mul_66_output_0 /Add_67_output_0_splitncnn_0 /Add_68_output_0
Split            splitncnn_132            1 2 /Add_68_output_0 /Add_68_output_0_splitncnn_0 /Add_68_output_0_splitncnn_1
Convolution      /Conv_268                1 1 /Add_68_output_0_splitncnn_1 /Relu_132_output_0 0=64 1=3 4=1 5=1 6=36864 9=1
Convolution      /Conv_269                1 1 /Relu_132_output_0 /Conv_269_output_0 0=64 1=3 4=1 5=1 6=36864
Split            splitncnn_133            1 2 /Conv_269_output_0 /Conv_269_output_0_splitncnn_0 /Conv_269_output_0_splitncnn_1
Pooling          /GlobalAveragePool_66    1 1 /Conv_269_output_0_splitncnn_1 /GlobalAveragePool_66_output_0 0=1 4=1
InnerProduct     /Conv_270                1 1 /GlobalAveragePool_66_output_0 /Relu_133_output_0 0=4 1=1 2=256 9=1
InnerProduct     /Conv_271                1 1 /Relu_133_output_0 /Sigmoid_66_output_0 0=64 1=1 2=256 9=4
BinaryOp         /Mul_67                  2 1 /Conv_269_output_0_splitncnn_0 /Sigmoid_66_output_0 /Mul_67_output_0 0=2
BinaryOp         /Add_69                  2 1 /Mul_67_output_0 /Add_68_output_0_splitncnn_0 /Add_69_output_0
Split            splitncnn_134            1 2 /Add_69_output_0 /Add_69_output_0_splitncnn_0 /Add_69_output_0_splitncnn_1
Convolution      /Conv_272                1 1 /Add_69_output_0_splitncnn_1 /Relu_134_output_0 0=64 1=3 4=1 5=1 6=36864 9=1
Convolution      /Conv_273                1 1 /Relu_134_output_0 /Conv_273_output_0 0=64 1=3 4=1 5=1 6=36864
Split            splitncnn_135            1 2 /Conv_273_output_0 /Conv_273_output_0_splitncnn_0 /Conv_273_output_0_splitncnn_1
Pooling          /GlobalAveragePool_67    1 1 /Conv_273_output_0_splitncnn_1 /GlobalAveragePool_67_output_0 0=1 4=1
InnerProduct     /Conv_274                1 1 /GlobalAveragePool_67_output_0 /Relu_135_output_0 0=4 1=1 2=256 9=1
InnerProduct     /Conv_275                1 1 /Relu_135_output_0 /Sigmoid_67_output_0 0=64 1=1 2=256 9=4
BinaryOp         /Mul_68                  2 1 /Conv_273_output_0_splitncnn_0 /Sigmoid_67_output_0 /Mul_68_output_0 0=2
BinaryOp         /Add_70                  2 1 /Mul_68_output_0 /Add_69_output_0_splitncnn_0 /Add_70_output_0
Split            splitncnn_136            1 2 /Add_70_output_0 /Add_70_output_0_splitncnn_0 /Add_70_output_0_splitncnn_1
Convolution      /Conv_276                1 1 /Add_70_output_0_splitncnn_1 /Relu_136_output_0 0=64 1=3 4=1 5=1 6=36864 9=1
Convolution      /Conv_277                1 1 /Relu_136_output_0 /Conv_277_output_0 0=64 1=3 4=1 5=1 6=36864
Split            splitncnn_137            1 2 /Conv_277_output_0 /Conv_277_output_0_splitncnn_0 /Conv_277_output_0_splitncnn_1
Pooling          /GlobalAveragePool_68    1 1 /Conv_277_output_0_splitncnn_1 /GlobalAveragePool_68_output_0 0=1 4=1
InnerProduct     /Conv_278                1 1 /GlobalAveragePool_68_output_0 /Relu_137_output_0 0=4 1=1 2=256 9=1
InnerProduct     /Conv_279                1 1 /Relu_137_output_0 /Sigmoid_68_output_0 0=64 1=1 2=256 9=4
BinaryOp         /Mul_69                  2 1 /Conv_277_output_0_splitncnn_0 /Sigmoid_68_output_0 /Mul_69_output_0 0=2
BinaryOp         /Add_71                  2 1 /Mul_69_output_0 /Add_70_output_0_splitncnn_0 /Add_71_output_0
Split            splitncnn_138            1 2 /Add_71_output_0 /Add_71_output_0_splitncnn_0 /Add_71_output_0_splitncnn_1
Convolution      /Conv_280                1 1 /Add_71_output_0_splitncnn_1 /Relu_138_output_0 0=64 1=3 4=1 5=1 6=36864 9=1
Convolution      /Conv_281                1 1 /Relu_138_output_0 /Conv_281_output_0 0=64 1=3 4=1 5=1 6=36864
Split            splitncnn_139            1 2 /Conv_281_output_0 /Conv_281_output_0_splitncnn_0 /Conv_281_output_0_splitncnn_1
Pooling          /GlobalAveragePool_69    1 1 /Conv_281_output_0_splitncnn_1 /GlobalAveragePool_69_output_0 0=1 4=1
InnerProduct     /Conv_282                1 1 /GlobalAveragePool_69_output_0 /Relu_139_output_0 0=4 1=1 2=256 9=1
InnerProduct     /Conv_283                1 1 /Relu_139_output_0 /Sigmoid_69_output_0 0=64 1=1 2=256 9=4
BinaryOp         /Mul_70                  2 1 /Conv_281_output_0_splitncnn_0 /Sigmoid_69_output_0 /Mul_70_output_0 0=2
BinaryOp         /Add_72                  2 1 /Mul_70_output_0 /Add_71_output_0_splitncnn_0 /Add_72_output_0
Split            splitncnn_140            1 2 /Add_72_output_0 /Add_72_output_0_splitncnn_0 /Add_72_output_0_splitncnn_1
Convolution      /Conv_284                1 1 /Add_72_output_0_splitncnn_1 /Relu_140_output_0 0=64 1=3 4=1 5=1 6=36864 9=1
Convolution      /Conv_285                1 1 /Relu_140_output_0 /Conv_285_output_0 0=64 1=3 4=1 5=1 6=36864
Split            splitncnn_141            1 2 /Conv_285_output_0 /Conv_285_output_0_splitncnn_0 /Conv_285_output_0_splitncnn_1
Pooling          /GlobalAveragePool_70    1 1 /Conv_285_output_0_splitncnn_1 /GlobalAveragePool_70_output_0 0=1 4=1
InnerProduct     /Conv_286                1 1 /GlobalAveragePool_70_output_0 /Relu_141_output_0 0=4 1=1 2=256 9=1
InnerProduct     /Conv_287                1 1 /Relu_141_output_0 /Sigmoid_70_output_0 0=64 1=1 2=256 9=4
BinaryOp         /Mul_71                  2 1 /Conv_285_output_0_splitncnn_0 /Sigmoid_70_output_0 /Mul_71_output_0 0=2
BinaryOp         /Add_73                  2 1 /Mul_71_output_0 /Add_72_output_0_splitncnn_0 /Add_73_output_0
Split            splitncnn_142            1 2 /Add_73_output_0 /Add_73_output_0_splitncnn_0 /Add_73_output_0_splitncnn_1
Convolution      /Conv_288                1 1 /Add_73_output_0_splitncnn_1 /Relu_142_output_0 0=64 1=3 4=1 5=1 6=36864 9=1
Convolution      /Conv_289                1 1 /Relu_142_output_0 /Conv_289_output_0 0=64 1=3 4=1 5=1 6=36864
Split            splitncnn_143            1 2 /Conv_289_output_0 /Conv_289_output_0_splitncnn_0 /Conv_289_output_0_splitncnn_1
Pooling          /GlobalAveragePool_71    1 1 /Conv_289_output_0_splitncnn_1 /GlobalAveragePool_71_output_0 0=1 4=1
InnerProduct     /Conv_290                1 1 /GlobalAveragePool_71_output_0 /Relu_143_output_0 0=4 1=1 2=256 9=1
InnerProduct     /Conv_291                1 1 /Relu_143_output_0 /Sigmoid_71_output_0 0=64 1=1 2=256 9=4
BinaryOp         /Mul_72                  2 1 /Conv_289_output_0_splitncnn_0 /Sigmoid_71_output_0 /Mul_72_output_0 0=2
BinaryOp         /Add_74                  2 1 /Mul_72_output_0 /Add_73_output_0_splitncnn_0 /Add_74_output_0
Split            splitncnn_144            1 2 /Add_74_output_0 /Add_74_output_0_splitncnn_0 /Add_74_output_0_splitncnn_1
Convolution      /Conv_292                1 1 /Add_74_output_0_splitncnn_1 /Relu_144_output_0 0=64 1=3 4=1 5=1 6=36864 9=1
Convolution      /Conv_293                1 1 /Relu_144_output_0 /Conv_293_output_0 0=64 1=3 4=1 5=1 6=36864
Split            splitncnn_145            1 2 /Conv_293_output_0 /Conv_293_output_0_splitncnn_0 /Conv_293_output_0_splitncnn_1
Pooling          /GlobalAveragePool_72    1 1 /Conv_293_output_0_splitncnn_1 /GlobalAveragePool_72_output_0 0=1 4=1
InnerProduct     /Conv_294                1 1 /GlobalAveragePool_72_output_0 /Relu_145_output_0 0=4 1=1 2=256 9=1
InnerProduct     /Conv_295                1 1 /Relu_145_output_0 /Sigmoid_72_output_0 0=64 1=1 2=256 9=4
BinaryOp         /Mul_73                  2 1 /Conv_293_output_0_splitncnn_0 /Sigmoid_72_output_0 /Mul_73_output_0 0=2
BinaryOp         /Add_75                  2 1 /Mul_73_output_0 /Add_74_output_0_splitncnn_0 /Add_75_output_0
Split            splitncnn_146            1 2 /Add_75_output_0 /Add_75_output_0_splitncnn_0 /Add_75_output_0_splitncnn_1
Convolution      /Conv_296                1 1 /Add_75_output_0_splitncnn_1 /Relu_146_output_0 0=64 1=3 4=1 5=1 6=36864 9=1
Convolution      /Conv_297                1 1 /Relu_146_output_0 /Conv_297_output_0 0=64 1=3 4=1 5=1 6=36864
Split            splitncnn_147            1 2 /Conv_297_output_0 /Conv_297_output_0_splitncnn_0 /Conv_297_output_0_splitncnn_1
Pooling          /GlobalAveragePool_73    1 1 /Conv_297_output_0_splitncnn_1 /GlobalAveragePool_73_output_0 0=1 4=1
InnerProduct     /Conv_298                1 1 /GlobalAveragePool_73_output_0 /Relu_147_output_0 0=4 1=1 2=256 9=1
InnerProduct     /Conv_299                1 1 /Relu_147_output_0 /Sigmoid_73_output_0 0=64 1=1 2=256 9=4
BinaryOp         /Mul_74                  2 1 /Conv_297_output_0_splitncnn_0 /Sigmoid_73_output_0 /Mul_74_output_0 0=2
BinaryOp         /Add_76                  2 1 /Mul_74_output_0 /Add_75_output_0_splitncnn_0 /Add_76_output_0
Split            splitncnn_148            1 2 /Add_76_output_0 /Add_76_output_0_splitncnn_0 /Add_76_output_0_splitncnn_1
Convolution      /Conv_300                1 1 /Add_76_output_0_splitncnn_1 /Relu_148_output_0 0=64 1=3 4=1 5=1 6=36864 9=1
Convolution      /Conv_301                1 1 /Relu_148_output_0 /Conv_301_output_0 0=64 1=3 4=1 5=1 6=36864
Split            splitncnn_149            1 2 /Conv_301_output_0 /Conv_301_output_0_splitncnn_0 /Conv_301_output_0_splitncnn_1
Pooling          /GlobalAveragePool_74    1 1 /Conv_301_output_0_splitncnn_1 /GlobalAveragePool_74_output_0 0=1 4=1
InnerProduct     /Conv_302                1 1 /GlobalAveragePool_74_output_0 /Relu_149_output_0 0=4 1=1 2=256 9=1
InnerProduct     /Conv_303                1 1 /Relu_149_output_0 /Sigmoid_74_output_0 0=64 1=1 2=256 9=4
BinaryOp         /Mul_75                  2 1 /Conv_301_output_0_splitncnn_0 /Sigmoid_74_output_0 /Mul_75_output_0 0=2
BinaryOp         /Add_77                  2 1 /Mul_75_output_0 /Add_76_output_0_splitncnn_0 /Add_77_output_0
Split            splitncnn_150            1 2 /Add_77_output_0 /Add_77_output_0_splitncnn_0 /Add_77_output_0_splitncnn_1
Convolution      /Conv_304                1 1 /Add_77_output_0_splitncnn_1 /Relu_150_output_0 0=64 1=3 4=1 5=1 6=36864 9=1
Convolution      /Conv_305                1 1 /Relu_150_output_0 /Conv_305_output_0 0=64 1=3 4=1 5=1 6=36864
Split            splitncnn_151            1 2 /Conv_305_output_0 /Conv_305_output_0_splitncnn_0 /Conv_305_output_0_splitncnn_1
Pooling          /GlobalAveragePool_75    1 1 /Conv_305_output_0_splitncnn_1 /GlobalAveragePool_75_output_0 0=1 4=1
InnerProduct     /Conv_306                1 1 /GlobalAveragePool_75_output_0 /Relu_151_output_0 0=4 1=1 2=256 9=1
InnerProduct     /Conv_307                1 1 /Relu_151_output_0 /Sigmoid_75_output_0 0=64 1=1 2=256 9=4
BinaryOp         /Mul_76                  2 1 /Conv_305_output_0_splitncnn_0 /Sigmoid_75_output_0 /Mul_76_output_0 0=2
BinaryOp         /Add_78                  2 1 /Mul_76_output_0 /Add_77_output_0_splitncnn_0 /Add_78_output_0
Split            splitncnn_152            1 2 /Add_78_output_0 /Add_78_output_0_splitncnn_0 /Add_78_output_0_splitncnn_1
Convolution      /Conv_308                1 1 /Add_78_output_0_splitncnn_1 /Relu_152_output_0 0=64 1=3 4=1 5=1 6=36864 9=1
Convolution      /Conv_309                1 1 /Relu_152_output_0 /Conv_309_output_0 0=64 1=3 4=1 5=1 6=36864
Split            splitncnn_153            1 2 /Conv_309_output_0 /Conv_309_output_0_splitncnn_0 /Conv_309_output_0_splitncnn_1
Pooling          /GlobalAveragePool_76    1 1 /Conv_309_output_0_splitncnn_1 /GlobalAveragePool_76_output_0 0=1 4=1
InnerProduct     /Conv_310                1 1 /GlobalAveragePool_76_output_0 /Relu_153_output_0 0=4 1=1 2=256 9=1
InnerProduct     /Conv_311                1 1 /Relu_153_output_0 /Sigmoid_76_output_0 0=64 1=1 2=256 9=4
BinaryOp         /Mul_77                  2 1 /Conv_309_output_0_splitncnn_0 /Sigmoid_76_output_0 /Mul_77_output_0 0=2
BinaryOp         /Add_79                  2 1 /Mul_77_output_0 /Add_78_output_0_splitncnn_0 /Add_79_output_0
Split            splitncnn_154            1 2 /Add_79_output_0 /Add_79_output_0_splitncnn_0 /Add_79_output_0_splitncnn_1
Convolution      /Conv_312                1 1 /Add_79_output_0_splitncnn_1 /Relu_154_output_0 0=64 1=3 4=1 5=1 6=36864 9=1
Convolution      /Conv_313                1 1 /Relu_154_output_0 /Conv_313_output_0 0=64 1=3 4=1 5=1 6=36864
Split            splitncnn_155            1 2 /Conv_313_output_0 /Conv_313_output_0_splitncnn_0 /Conv_313_output_0_splitncnn_1
Pooling          /GlobalAveragePool_77    1 1 /Conv_313_output_0_splitncnn_1 /GlobalAveragePool_77_output_0 0=1 4=1
InnerProduct     /Conv_314                1 1 /GlobalAveragePool_77_output_0 /Relu_155_output_0 0=4 1=1 2=256 9=1
InnerProduct     /Conv_315                1 1 /Relu_155_output_0 /Sigmoid_77_output_0 0=64 1=1 2=256 9=4
BinaryOp         /Mul_78                  2 1 /Conv_313_output_0_splitncnn_0 /Sigmoid_77_output_0 /Mul_78_output_0 0=2
BinaryOp         /Add_80                  2 1 /Mul_78_output_0 /Add_79_output_0_splitncnn_0 /Add_80_output_0
Split            splitncnn_156            1 2 /Add_80_output_0 /Add_80_output_0_splitncnn_0 /Add_80_output_0_splitncnn_1
Convolution      /Conv_316                1 1 /Add_80_output_0_splitncnn_1 /Relu_156_output_0 0=64 1=3 4=1 5=1 6=36864 9=1
Convolution      /Conv_317                1 1 /Relu_156_output_0 /Conv_317_output_0 0=64 1=3 4=1 5=1 6=36864
Split            splitncnn_157            1 2 /Conv_317_output_0 /Conv_317_output_0_splitncnn_0 /Conv_317_output_0_splitncnn_1
Pooling          /GlobalAveragePool_78    1 1 /Conv_317_output_0_splitncnn_1 /GlobalAveragePool_78_output_0 0=1 4=1
InnerProduct     /Conv_318                1 1 /GlobalAveragePool_78_output_0 /Relu_157_output_0 0=4 1=1 2=256 9=1
InnerProduct     /Conv_319                1 1 /Relu_157_output_0 /Sigmoid_78_output_0 0=64 1=1 2=256 9=4
BinaryOp         /Mul_79                  2 1 /Conv_317_output_0_splitncnn_0 /Sigmoid_78_output_0 /Mul_79_output_0 0=2
BinaryOp         /Add_81                  2 1 /Mul_79_output_0 /Add_80_output_0_splitncnn_0 /Add_81_output_0
Split            splitncnn_158            1 2 /Add_81_output_0 /Add_81_output_0_splitncnn_0 /Add_81_output_0_splitncnn_1
Convolution      /Conv_320                1 1 /Add_81_output_0_splitncnn_1 /Relu_158_output_0 0=64 1=3 4=1 5=1 6=36864 9=1
Convolution      /Conv_321                1 1 /Relu_158_output_0 /Conv_321_output_0 0=64 1=3 4=1 5=1 6=36864
Split            splitncnn_159            1 2 /Conv_321_output_0 /Conv_321_output_0_splitncnn_0 /Conv_321_output_0_splitncnn_1
Pooling          /GlobalAveragePool_79    1 1 /Conv_321_output_0_splitncnn_1 /GlobalAveragePool_79_output_0 0=1 4=1
InnerProduct     /Conv_322                1 1 /GlobalAveragePool_79_output_0 /Relu_159_output_0 0=4 1=1 2=256 9=1
InnerProduct     /Conv_323                1 1 /Relu_159_output_0 /Sigmoid_79_output_0 0=64 1=1 2=256 9=4
BinaryOp         /Mul_80                  2 1 /Conv_321_output_0_splitncnn_0 /Sigmoid_79_output_0 /Mul_80_output_0 0=2
BinaryOp         /Add_82                  2 1 /Mul_80_output_0 /Add_81_output_0_splitncnn_0 /Add_82_output_0
Convolution      /Conv_324                1 1 /Add_82_output_0 /Conv_324_output_0 0=64 1=3 4=1 5=1 6=36864
BinaryOp         /Add_83                  2 1 /Conv_324_output_0 /Add_62_output_0_splitncnn_0 /Add_83_output_0
Split            splitncnn_160            1 3 /Add_83_output_0 /Add_83_output_0_splitncnn_0 /Add_83_output_0_splitncnn_1 /Add_83_output_0_splitncnn_2
Convolution      /Conv_325                1 1 /Add_83_output_0_splitncnn_2 /Relu_160_output_0 0=64 1=3 4=1 5=1 6=36864 9=1
Convolution      /Conv_326                1 1 /Relu_160_output_0 /Conv_326_output_0 0=64 1=3 4=1 5=1 6=36864
Split            splitncnn_161            1 2 /Conv_326_output_0 /Conv_326_output_0_splitncnn_0 /Conv_326_output_0_splitncnn_1
Pooling          /GlobalAveragePool_80    1 1 /Conv_326_output_0_splitncnn_1 /GlobalAveragePool_80_output_0 0=1 4=1
InnerProduct     /Conv_327                1 1 /GlobalAveragePool_80_output_0 /Relu_161_output_0 0=4 1=1 2=256 9=1
InnerProduct     /Conv_328                1 1 /Relu_161_output_0 /Sigmoid_80_output_0 0=64 1=1 2=256 9=4
BinaryOp         /Mul_81                  2 1 /Conv_326_output_0_splitncnn_0 /Sigmoid_80_output_0 /Mul_81_output_0 0=2
BinaryOp         /Add_84                  2 1 /Mul_81_output_0 /Add_83_output_0_splitncnn_1 /Add_84_output_0
Split            splitncnn_162            1 2 /Add_84_output_0 /Add_84_output_0_splitncnn_0 /Add_84_output_0_splitncnn_1
Convolution      /Conv_329                1 1 /Add_84_output_0_splitncnn_1 /Relu_162_output_0 0=64 1=3 4=1 5=1 6=36864 9=1
Convolution      /Conv_330                1 1 /Relu_162_output_0 /Conv_330_output_0 0=64 1=3 4=1 5=1 6=36864
Split            splitncnn_163            1 2 /Conv_330_output_0 /Conv_330_output_0_splitncnn_0 /Conv_330_output_0_splitncnn_1
Pooling          /GlobalAveragePool_81    1 1 /Conv_330_output_0_splitncnn_1 /GlobalAveragePool_81_output_0 0=1 4=1
InnerProduct     /Conv_331                1 1 /GlobalAveragePool_81_output_0 /Relu_163_output_0 0=4 1=1 2=256 9=1
InnerProduct     /Conv_332                1 1 /Relu_163_output_0 /Sigmoid_81_output_0 0=64 1=1 2=256 9=4
BinaryOp         /Mul_82                  2 1 /Conv_330_output_0_splitncnn_0 /Sigmoid_81_output_0 /Mul_82_output_0 0=2
BinaryOp         /Add_85                  2 1 /Mul_82_output_0 /Add_84_output_0_splitncnn_0 /Add_85_output_0
Split            splitncnn_164            1 2 /Add_85_output_0 /Add_85_output_0_splitncnn_0 /Add_85_output_0_splitncnn_1
Convolution      /Conv_333                1 1 /Add_85_output_0_splitncnn_1 /Relu_164_output_0 0=64 1=3 4=1 5=1 6=36864 9=1
Convolution      /Conv_334                1 1 /Relu_164_output_0 /Conv_334_output_0 0=64 1=3 4=1 5=1 6=36864
Split            splitncnn_165            1 2 /Conv_334_output_0 /Conv_334_output_0_splitncnn_0 /Conv_334_output_0_splitncnn_1
Pooling          /GlobalAveragePool_82    1 1 /Conv_334_output_0_splitncnn_1 /GlobalAveragePool_82_output_0 0=1 4=1
InnerProduct     /Conv_335                1 1 /GlobalAveragePool_82_output_0 /Relu_165_output_0 0=4 1=1 2=256 9=1
InnerProduct     /Conv_336                1 1 /Relu_165_output_0 /Sigmoid_82_output_0 0=64 1=1 2=256 9=4
BinaryOp         /Mul_83                  2 1 /Conv_334_output_0_splitncnn_0 /Sigmoid_82_output_0 /Mul_83_output_0 0=2
BinaryOp         /Add_86                  2 1 /Mul_83_output_0 /Add_85_output_0_splitncnn_0 /Add_86_output_0
Split            splitncnn_166            1 2 /Add_86_output_0 /Add_86_output_0_splitncnn_0 /Add_86_output_0_splitncnn_1
Convolution      /Conv_337                1 1 /Add_86_output_0_splitncnn_1 /Relu_166_output_0 0=64 1=3 4=1 5=1 6=36864 9=1
Convolution      /Conv_338                1 1 /Relu_166_output_0 /Conv_338_output_0 0=64 1=3 4=1 5=1 6=36864
Split            splitncnn_167            1 2 /Conv_338_output_0 /Conv_338_output_0_splitncnn_0 /Conv_338_output_0_splitncnn_1
Pooling          /GlobalAveragePool_83    1 1 /Conv_338_output_0_splitncnn_1 /GlobalAveragePool_83_output_0 0=1 4=1
InnerProduct     /Conv_339                1 1 /GlobalAveragePool_83_output_0 /Relu_167_output_0 0=4 1=1 2=256 9=1
InnerProduct     /Conv_340                1 1 /Relu_167_output_0 /Sigmoid_83_output_0 0=64 1=1 2=256 9=4
BinaryOp         /Mul_84                  2 1 /Conv_338_output_0_splitncnn_0 /Sigmoid_83_output_0 /Mul_84_output_0 0=2
BinaryOp         /Add_87                  2 1 /Mul_84_output_0 /Add_86_output_0_splitncnn_0 /Add_87_output_0
Split            splitncnn_168            1 2 /Add_87_output_0 /Add_87_output_0_splitncnn_0 /Add_87_output_0_splitncnn_1
Convolution      /Conv_341                1 1 /Add_87_output_0_splitncnn_1 /Relu_168_output_0 0=64 1=3 4=1 5=1 6=36864 9=1
Convolution      /Conv_342                1 1 /Relu_168_output_0 /Conv_342_output_0 0=64 1=3 4=1 5=1 6=36864
Split            splitncnn_169            1 2 /Conv_342_output_0 /Conv_342_output_0_splitncnn_0 /Conv_342_output_0_splitncnn_1
Pooling          /GlobalAveragePool_84    1 1 /Conv_342_output_0_splitncnn_1 /GlobalAveragePool_84_output_0 0=1 4=1
InnerProduct     /Conv_343                1 1 /GlobalAveragePool_84_output_0 /Relu_169_output_0 0=4 1=1 2=256 9=1
InnerProduct     /Conv_344                1 1 /Relu_169_output_0 /Sigmoid_84_output_0 0=64 1=1 2=256 9=4
BinaryOp         /Mul_85                  2 1 /Conv_342_output_0_splitncnn_0 /Sigmoid_84_output_0 /Mul_85_output_0 0=2
BinaryOp         /Add_88                  2 1 /Mul_85_output_0 /Add_87_output_0_splitncnn_0 /Add_88_output_0
Split            splitncnn_170            1 2 /Add_88_output_0 /Add_88_output_0_splitncnn_0 /Add_88_output_0_splitncnn_1
Convolution      /Conv_345                1 1 /Add_88_output_0_splitncnn_1 /Relu_170_output_0 0=64 1=3 4=1 5=1 6=36864 9=1
Convolution      /Conv_346                1 1 /Relu_170_output_0 /Conv_346_output_0 0=64 1=3 4=1 5=1 6=36864
Split            splitncnn_171            1 2 /Conv_346_output_0 /Conv_346_output_0_splitncnn_0 /Conv_346_output_0_splitncnn_1
Pooling          /GlobalAveragePool_85    1 1 /Conv_346_output_0_splitncnn_1 /GlobalAveragePool_85_output_0 0=1 4=1
InnerProduct     /Conv_347                1 1 /GlobalAveragePool_85_output_0 /Relu_171_output_0 0=4 1=1 2=256 9=1
InnerProduct     /Conv_348                1 1 /Relu_171_output_0 /Sigmoid_85_output_0 0=64 1=1 2=256 9=4
BinaryOp         /Mul_86                  2 1 /Conv_346_output_0_splitncnn_0 /Sigmoid_85_output_0 /Mul_86_output_0 0=2
BinaryOp         /Add_89                  2 1 /Mul_86_output_0 /Add_88_output_0_splitncnn_0 /Add_89_output_0
Split            splitncnn_172            1 2 /Add_89_output_0 /Add_89_output_0_splitncnn_0 /Add_89_output_0_splitncnn_1
Convolution      /Conv_349                1 1 /Add_89_output_0_splitncnn_1 /Relu_172_output_0 0=64 1=3 4=1 5=1 6=36864 9=1
Convolution      /Conv_350                1 1 /Relu_172_output_0 /Conv_350_output_0 0=64 1=3 4=1 5=1 6=36864
Split            splitncnn_173            1 2 /Conv_350_output_0 /Conv_350_output_0_splitncnn_0 /Conv_350_output_0_splitncnn_1
Pooling          /GlobalAveragePool_86    1 1 /Conv_350_output_0_splitncnn_1 /GlobalAveragePool_86_output_0 0=1 4=1
InnerProduct     /Conv_351                1 1 /GlobalAveragePool_86_output_0 /Relu_173_output_0 0=4 1=1 2=256 9=1
InnerProduct     /Conv_352                1 1 /Relu_173_output_0 /Sigmoid_86_output_0 0=64 1=1 2=256 9=4
BinaryOp         /Mul_87                  2 1 /Conv_350_output_0_splitncnn_0 /Sigmoid_86_output_0 /Mul_87_output_0 0=2
BinaryOp         /Add_90                  2 1 /Mul_87_output_0 /Add_89_output_0_splitncnn_0 /Add_90_output_0
Split            splitncnn_174            1 2 /Add_90_output_0 /Add_90_output_0_splitncnn_0 /Add_90_output_0_splitncnn_1
Convolution      /Conv_353                1 1 /Add_90_output_0_splitncnn_1 /Relu_174_output_0 0=64 1=3 4=1 5=1 6=36864 9=1
Convolution      /Conv_354                1 1 /Relu_174_output_0 /Conv_354_output_0 0=64 1=3 4=1 5=1 6=36864
Split            splitncnn_175            1 2 /Conv_354_output_0 /Conv_354_output_0_splitncnn_0 /Conv_354_output_0_splitncnn_1
Pooling          /GlobalAveragePool_87    1 1 /Conv_354_output_0_splitncnn_1 /GlobalAveragePool_87_output_0 0=1 4=1
InnerProduct     /Conv_355                1 1 /GlobalAveragePool_87_output_0 /Relu_175_output_0 0=4 1=1 2=256 9=1
InnerProduct     /Conv_356                1 1 /Relu_175_output_0 /Sigmoid_87_output_0 0=64 1=1 2=256 9=4
BinaryOp         /Mul_88                  2 1 /Conv_354_output_0_splitncnn_0 /Sigmoid_87_output_0 /Mul_88_output_0 0=2
BinaryOp         /Add_91                  2 1 /Mul_88_output_0 /Add_90_output_0_splitncnn_0 /Add_91_output_0
Split            splitncnn_176            1 2 /Add_91_output_0 /Add_91_output_0_splitncnn_0 /Add_91_output_0_splitncnn_1
Convolution      /Conv_357                1 1 /Add_91_output_0_splitncnn_1 /Relu_176_output_0 0=64 1=3 4=1 5=1 6=36864 9=1
Convolution      /Conv_358                1 1 /Relu_176_output_0 /Conv_358_output_0 0=64 1=3 4=1 5=1 6=36864
Split            splitncnn_177            1 2 /Conv_358_output_0 /Conv_358_output_0_splitncnn_0 /Conv_358_output_0_splitncnn_1
Pooling          /GlobalAveragePool_88    1 1 /Conv_358_output_0_splitncnn_1 /GlobalAveragePool_88_output_0 0=1 4=1
InnerProduct     /Conv_359                1 1 /GlobalAveragePool_88_output_0 /Relu_177_output_0 0=4 1=1 2=256 9=1
InnerProduct     /Conv_360                1 1 /Relu_177_output_0 /Sigmoid_88_output_0 0=64 1=1 2=256 9=4
BinaryOp         /Mul_89                  2 1 /Conv_358_output_0_splitncnn_0 /Sigmoid_88_output_0 /Mul_89_output_0 0=2
BinaryOp         /Add_92                  2 1 /Mul_89_output_0 /Add_91_output_0_splitncnn_0 /Add_92_output_0
Split            splitncnn_178            1 2 /Add_92_output_0 /Add_92_output_0_splitncnn_0 /Add_92_output_0_splitncnn_1
Convolution      /Conv_361                1 1 /Add_92_output_0_splitncnn_1 /Relu_178_output_0 0=64 1=3 4=1 5=1 6=36864 9=1
Convolution      /Conv_362                1 1 /Relu_178_output_0 /Conv_362_output_0 0=64 1=3 4=1 5=1 6=36864
Split            splitncnn_179            1 2 /Conv_362_output_0 /Conv_362_output_0_splitncnn_0 /Conv_362_output_0_splitncnn_1
Pooling          /GlobalAveragePool_89    1 1 /Conv_362_output_0_splitncnn_1 /GlobalAveragePool_89_output_0 0=1 4=1
InnerProduct     /Conv_363                1 1 /GlobalAveragePool_89_output_0 /Relu_179_output_0 0=4 1=1 2=256 9=1
InnerProduct     /Conv_364                1 1 /Relu_179_output_0 /Sigmoid_89_output_0 0=64 1=1 2=256 9=4
BinaryOp         /Mul_90                  2 1 /Conv_362_output_0_splitncnn_0 /Sigmoid_89_output_0 /Mul_90_output_0 0=2
BinaryOp         /Add_93                  2 1 /Mul_90_output_0 /Add_92_output_0_splitncnn_0 /Add_93_output_0
Split            splitncnn_180            1 2 /Add_93_output_0 /Add_93_output_0_splitncnn_0 /Add_93_output_0_splitncnn_1
Convolution      /Conv_365                1 1 /Add_93_output_0_splitncnn_1 /Relu_180_output_0 0=64 1=3 4=1 5=1 6=36864 9=1
Convolution      /Conv_366                1 1 /Relu_180_output_0 /Conv_366_output_0 0=64 1=3 4=1 5=1 6=36864
Split            splitncnn_181            1 2 /Conv_366_output_0 /Conv_366_output_0_splitncnn_0 /Conv_366_output_0_splitncnn_1
Pooling          /GlobalAveragePool_90    1 1 /Conv_366_output_0_splitncnn_1 /GlobalAveragePool_90_output_0 0=1 4=1
InnerProduct     /Conv_367                1 1 /GlobalAveragePool_90_output_0 /Relu_181_output_0 0=4 1=1 2=256 9=1
InnerProduct     /Conv_368                1 1 /Relu_181_output_0 /Sigmoid_90_output_0 0=64 1=1 2=256 9=4
BinaryOp         /Mul_91                  2 1 /Conv_366_output_0_splitncnn_0 /Sigmoid_90_output_0 /Mul_91_output_0 0=2
BinaryOp         /Add_94                  2 1 /Mul_91_output_0 /Add_93_output_0_splitncnn_0 /Add_94_output_0
Split            splitncnn_182            1 2 /Add_94_output_0 /Add_94_output_0_splitncnn_0 /Add_94_output_0_splitncnn_1
Convolution      /Conv_369                1 1 /Add_94_output_0_splitncnn_1 /Relu_182_output_0 0=64 1=3 4=1 5=1 6=36864 9=1
Convolution      /Conv_370                1 1 /Relu_182_output_0 /Conv_370_output_0 0=64 1=3 4=1 5=1 6=36864
Split            splitncnn_183            1 2 /Conv_370_output_0 /Conv_370_output_0_splitncnn_0 /Conv_370_output_0_splitncnn_1
Pooling          /GlobalAveragePool_91    1 1 /Conv_370_output_0_splitncnn_1 /GlobalAveragePool_91_output_0 0=1 4=1
InnerProduct     /Conv_371                1 1 /GlobalAveragePool_91_output_0 /Relu_183_output_0 0=4 1=1 2=256 9=1
InnerProduct     /Conv_372                1 1 /Relu_183_output_0 /Sigmoid_91_output_0 0=64 1=1 2=256 9=4
BinaryOp         /Mul_92                  2 1 /Conv_370_output_0_splitncnn_0 /Sigmoid_91_output_0 /Mul_92_output_0 0=2
BinaryOp         /Add_95                  2 1 /Mul_92_output_0 /Add_94_output_0_splitncnn_0 /Add_95_output_0
Split            splitncnn_184            1 2 /Add_95_output_0 /Add_95_output_0_splitncnn_0 /Add_95_output_0_splitncnn_1
Convolution      /Conv_373                1 1 /Add_95_output_0_splitncnn_1 /Relu_184_output_0 0=64 1=3 4=1 5=1 6=36864 9=1
Convolution      /Conv_374                1 1 /Relu_184_output_0 /Conv_374_output_0 0=64 1=3 4=1 5=1 6=36864
Split            splitncnn_185            1 2 /Conv_374_output_0 /Conv_374_output_0_splitncnn_0 /Conv_374_output_0_splitncnn_1
Pooling          /GlobalAveragePool_92    1 1 /Conv_374_output_0_splitncnn_1 /GlobalAveragePool_92_output_0 0=1 4=1
InnerProduct     /Conv_375                1 1 /GlobalAveragePool_92_output_0 /Relu_185_output_0 0=4 1=1 2=256 9=1
InnerProduct     /Conv_376                1 1 /Relu_185_output_0 /Sigmoid_92_output_0 0=64 1=1 2=256 9=4
BinaryOp         /Mul_93                  2 1 /Conv_374_output_0_splitncnn_0 /Sigmoid_92_output_0 /Mul_93_output_0 0=2
BinaryOp         /Add_96                  2 1 /Mul_93_output_0 /Add_95_output_0_splitncnn_0 /Add_96_output_0
Split            splitncnn_186            1 2 /Add_96_output_0 /Add_96_output_0_splitncnn_0 /Add_96_output_0_splitncnn_1
Convolution      /Conv_377                1 1 /Add_96_output_0_splitncnn_1 /Relu_186_output_0 0=64 1=3 4=1 5=1 6=36864 9=1
Convolution      /Conv_378                1 1 /Relu_186_output_0 /Conv_378_output_0 0=64 1=3 4=1 5=1 6=36864
Split            splitncnn_187            1 2 /Conv_378_output_0 /Conv_378_output_0_splitncnn_0 /Conv_378_output_0_splitncnn_1
Pooling          /GlobalAveragePool_93    1 1 /Conv_378_output_0_splitncnn_1 /GlobalAveragePool_93_output_0 0=1 4=1
InnerProduct     /Conv_379                1 1 /GlobalAveragePool_93_output_0 /Relu_187_output_0 0=4 1=1 2=256 9=1
InnerProduct     /Conv_380                1 1 /Relu_187_output_0 /Sigmoid_93_output_0 0=64 1=1 2=256 9=4
BinaryOp         /Mul_94                  2 1 /Conv_378_output_0_splitncnn_0 /Sigmoid_93_output_0 /Mul_94_output_0 0=2
BinaryOp         /Add_97                  2 1 /Mul_94_output_0 /Add_96_output_0_splitncnn_0 /Add_97_output_0
Split            splitncnn_188            1 2 /Add_97_output_0 /Add_97_output_0_splitncnn_0 /Add_97_output_0_splitncnn_1
Convolution      /Conv_381                1 1 /Add_97_output_0_splitncnn_1 /Relu_188_output_0 0=64 1=3 4=1 5=1 6=36864 9=1
Convolution      /Conv_382                1 1 /Relu_188_output_0 /Conv_382_output_0 0=64 1=3 4=1 5=1 6=36864
Split            splitncnn_189            1 2 /Conv_382_output_0 /Conv_382_output_0_splitncnn_0 /Conv_382_output_0_splitncnn_1
Pooling          /GlobalAveragePool_94    1 1 /Conv_382_output_0_splitncnn_1 /GlobalAveragePool_94_output_0 0=1 4=1
InnerProduct     /Conv_383                1 1 /GlobalAveragePool_94_output_0 /Relu_189_output_0 0=4 1=1 2=256 9=1
InnerProduct     /Conv_384                1 1 /Relu_189_output_0 /Sigmoid_94_output_0 0=64 1=1 2=256 9=4
BinaryOp         /Mul_95                  2 1 /Conv_382_output_0_splitncnn_0 /Sigmoid_94_output_0 /Mul_95_output_0 0=2
BinaryOp         /Add_98                  2 1 /Mul_95_output_0 /Add_97_output_0_splitncnn_0 /Add_98_output_0
Split            splitncnn_190            1 2 /Add_98_output_0 /Add_98_output_0_splitncnn_0 /Add_98_output_0_splitncnn_1
Convolution      /Conv_385                1 1 /Add_98_output_0_splitncnn_1 /Relu_190_output_0 0=64 1=3 4=1 5=1 6=36864 9=1
Convolution      /Conv_386                1 1 /Relu_190_output_0 /Conv_386_output_0 0=64 1=3 4=1 5=1 6=36864
Split            splitncnn_191            1 2 /Conv_386_output_0 /Conv_386_output_0_splitncnn_0 /Conv_386_output_0_splitncnn_1
Pooling          /GlobalAveragePool_95    1 1 /Conv_386_output_0_splitncnn_1 /GlobalAveragePool_95_output_0 0=1 4=1
InnerProduct     /Conv_387                1 1 /GlobalAveragePool_95_output_0 /Relu_191_output_0 0=4 1=1 2=256 9=1
InnerProduct     /Conv_388                1 1 /Relu_191_output_0 /Sigmoid_95_output_0 0=64 1=1 2=256 9=4
BinaryOp         /Mul_96                  2 1 /Conv_386_output_0_splitncnn_0 /Sigmoid_95_output_0 /Mul_96_output_0 0=2
BinaryOp         /Add_99                  2 1 /Mul_96_output_0 /Add_98_output_0_splitncnn_0 /Add_99_output_0
Split            splitncnn_192            1 2 /Add_99_output_0 /Add_99_output_0_splitncnn_0 /Add_99_output_0_splitncnn_1
Convolution      /Conv_389                1 1 /Add_99_output_0_splitncnn_1 /Relu_192_output_0 0=64 1=3 4=1 5=1 6=36864 9=1
Convolution      /Conv_390                1 1 /Relu_192_output_0 /Conv_390_output_0 0=64 1=3 4=1 5=1 6=36864
Split            splitncnn_193            1 2 /Conv_390_output_0 /Conv_390_output_0_splitncnn_0 /Conv_390_output_0_splitncnn_1
Pooling          /GlobalAveragePool_96    1 1 /Conv_390_output_0_splitncnn_1 /GlobalAveragePool_96_output_0 0=1 4=1
InnerProduct     /Conv_391                1 1 /GlobalAveragePool_96_output_0 /Relu_193_output_0 0=4 1=1 2=256 9=1
InnerProduct     /Conv_392                1 1 /Relu_193_output_0 /Sigmoid_96_output_0 0=64 1=1 2=256 9=4
BinaryOp         /Mul_97                  2 1 /Conv_390_output_0_splitncnn_0 /Sigmoid_96_output_0 /Mul_97_output_0 0=2
BinaryOp         /Add_100                 2 1 /Mul_97_output_0 /Add_99_output_0_splitncnn_0 /Add_100_output_0
Split            splitncnn_194            1 2 /Add_100_output_0 /Add_100_output_0_splitncnn_0 /Add_100_output_0_splitncnn_1
Convolution      /Conv_393                1 1 /Add_100_output_0_splitncnn_1 /Relu_194_output_0 0=64 1=3 4=1 5=1 6=36864 9=1
Convolution      /Conv_394                1 1 /Relu_194_output_0 /Conv_394_output_0 0=64 1=3 4=1 5=1 6=36864
Split            splitncnn_195            1 2 /Conv_394_output_0 /Conv_394_output_0_splitncnn_0 /Conv_394_output_0_splitncnn_1
Pooling          /GlobalAveragePool_97    1 1 /Conv_394_output_0_splitncnn_1 /GlobalAveragePool_97_output_0 0=1 4=1
InnerProduct     /Conv_395                1 1 /GlobalAveragePool_97_output_0 /Relu_195_output_0 0=4 1=1 2=256 9=1
InnerProduct     /Conv_396                1 1 /Relu_195_output_0 /Sigmoid_97_output_0 0=64 1=1 2=256 9=4
BinaryOp         /Mul_98                  2 1 /Conv_394_output_0_splitncnn_0 /Sigmoid_97_output_0 /Mul_98_output_0 0=2
BinaryOp         /Add_101                 2 1 /Mul_98_output_0 /Add_100_output_0_splitncnn_0 /Add_101_output_0
Split            splitncnn_196            1 2 /Add_101_output_0 /Add_101_output_0_splitncnn_0 /Add_101_output_0_splitncnn_1
Convolution      /Conv_397                1 1 /Add_101_output_0_splitncnn_1 /Relu_196_output_0 0=64 1=3 4=1 5=1 6=36864 9=1
Convolution      /Conv_398                1 1 /Relu_196_output_0 /Conv_398_output_0 0=64 1=3 4=1 5=1 6=36864
Split            splitncnn_197            1 2 /Conv_398_output_0 /Conv_398_output_0_splitncnn_0 /Conv_398_output_0_splitncnn_1
Pooling          /GlobalAveragePool_98    1 1 /Conv_398_output_0_splitncnn_1 /GlobalAveragePool_98_output_0 0=1 4=1
InnerProduct     /Conv_399                1 1 /GlobalAveragePool_98_output_0 /Relu_197_output_0 0=4 1=1 2=256 9=1
InnerProduct     /Conv_400                1 1 /Relu_197_output_0 /Sigmoid_98_output_0 0=64 1=1 2=256 9=4
BinaryOp         /Mul_99                  2 1 /Conv_398_output_0_splitncnn_0 /Sigmoid_98_output_0 /Mul_99_output_0 0=2
BinaryOp         /Add_102                 2 1 /Mul_99_output_0 /Add_101_output_0_splitncnn_0 /Add_102_output_0
Split            splitncnn_198            1 2 /Add_102_output_0 /Add_102_output_0_splitncnn_0 /Add_102_output_0_splitncnn_1
Convolution      /Conv_401                1 1 /Add_102_output_0_splitncnn_1 /Relu_198_output_0 0=64 1=3 4=1 5=1 6=36864 9=1
Convolution      /Conv_402                1 1 /Relu_198_output_0 /Conv_402_output_0 0=64 1=3 4=1 5=1 6=36864
Split            splitncnn_199            1 2 /Conv_402_output_0 /Conv_402_output_0_splitncnn_0 /Conv_402_output_0_splitncnn_1
Pooling          /GlobalAveragePool_99    1 1 /Conv_402_output_0_splitncnn_1 /GlobalAveragePool_99_output_0 0=1 4=1
InnerProduct     /Conv_403                1 1 /GlobalAveragePool_99_output_0 /Relu_199_output_0 0=4 1=1 2=256 9=1
InnerProduct     /Conv_404                1 1 /Relu_199_output_0 /Sigmoid_99_output_0 0=64 1=1 2=256 9=4
BinaryOp         /Mul_100                 2 1 /Conv_402_output_0_splitncnn_0 /Sigmoid_99_output_0 /Mul_100_output_0 0=2
BinaryOp         /Add_103                 2 1 /Mul_100_output_0 /Add_102_output_0_splitncnn_0 /Add_103_output_0
Convolution      /Conv_405                1 1 /Add_103_output_0 /Conv_405_output_0 0=64 1=3 4=1 5=1 6=36864
BinaryOp         /Add_104                 2 1 /Conv_405_output_0 /Add_83_output_0_splitncnn_0 /Add_104_output_0
Split            splitncnn_200            1 3 /Add_104_output_0 /Add_104_output_0_splitncnn_0 /Add_104_output_0_splitncnn_1 /Add_104_output_0_splitncnn_2
Convolution      /Conv_406                1 1 /Add_104_output_0_splitncnn_2 /Relu_200_output_0 0=64 1=3 4=1 5=1 6=36864 9=1
Convolution      /Conv_407                1 1 /Relu_200_output_0 /Conv_407_output_0 0=64 1=3 4=1 5=1 6=36864
Split            splitncnn_201            1 2 /Conv_407_output_0 /Conv_407_output_0_splitncnn_0 /Conv_407_output_0_splitncnn_1
Pooling          /GlobalAveragePool_100   1 1 /Conv_407_output_0_splitncnn_1 /GlobalAveragePool_100_output_0 0=1 4=1
InnerProduct     /Conv_408                1 1 /GlobalAveragePool_100_output_0 /Relu_201_output_0 0=4 1=1 2=256 9=1
InnerProduct     /Conv_409                1 1 /Relu_201_output_0 /Sigmoid_100_output_0 0=64 1=1 2=256 9=4
BinaryOp         /Mul_101                 2 1 /Conv_407_output_0_splitncnn_0 /Sigmoid_100_output_0 /Mul_101_output_0 0=2
BinaryOp         /Add_105                 2 1 /Mul_101_output_0 /Add_104_output_0_splitncnn_1 /Add_105_output_0
Split            splitncnn_202            1 2 /Add_105_output_0 /Add_105_output_0_splitncnn_0 /Add_105_output_0_splitncnn_1
Convolution      /Conv_410                1 1 /Add_105_output_0_splitncnn_1 /Relu_202_output_0 0=64 1=3 4=1 5=1 6=36864 9=1
Convolution      /Conv_411                1 1 /Relu_202_output_0 /Conv_411_output_0 0=64 1=3 4=1 5=1 6=36864
Split            splitncnn_203            1 2 /Conv_411_output_0 /Conv_411_output_0_splitncnn_0 /Conv_411_output_0_splitncnn_1
Pooling          /GlobalAveragePool_101   1 1 /Conv_411_output_0_splitncnn_1 /GlobalAveragePool_101_output_0 0=1 4=1
InnerProduct     /Conv_412                1 1 /GlobalAveragePool_101_output_0 /Relu_203_output_0 0=4 1=1 2=256 9=1
InnerProduct     /Conv_413                1 1 /Relu_203_output_0 /Sigmoid_101_output_0 0=64 1=1 2=256 9=4
BinaryOp         /Mul_102                 2 1 /Conv_411_output_0_splitncnn_0 /Sigmoid_101_output_0 /Mul_102_output_0 0=2
BinaryOp         /Add_106                 2 1 /Mul_102_output_0 /Add_105_output_0_splitncnn_0 /Add_106_output_0
Split            splitncnn_204            1 2 /Add_106_output_0 /Add_106_output_0_splitncnn_0 /Add_106_output_0_splitncnn_1
Convolution      /Conv_414                1 1 /Add_106_output_0_splitncnn_1 /Relu_204_output_0 0=64 1=3 4=1 5=1 6=36864 9=1
Convolution      /Conv_415                1 1 /Relu_204_output_0 /Conv_415_output_0 0=64 1=3 4=1 5=1 6=36864
Split            splitncnn_205            1 2 /Conv_415_output_0 /Conv_415_output_0_splitncnn_0 /Conv_415_output_0_splitncnn_1
Pooling          /GlobalAveragePool_102   1 1 /Conv_415_output_0_splitncnn_1 /GlobalAveragePool_102_output_0 0=1 4=1
InnerProduct     /Conv_416                1 1 /GlobalAveragePool_102_output_0 /Relu_205_output_0 0=4 1=1 2=256 9=1
InnerProduct     /Conv_417                1 1 /Relu_205_output_0 /Sigmoid_102_output_0 0=64 1=1 2=256 9=4
BinaryOp         /Mul_103                 2 1 /Conv_415_output_0_splitncnn_0 /Sigmoid_102_output_0 /Mul_103_output_0 0=2
BinaryOp         /Add_107                 2 1 /Mul_103_output_0 /Add_106_output_0_splitncnn_0 /Add_107_output_0
Split            splitncnn_206            1 2 /Add_107_output_0 /Add_107_output_0_splitncnn_0 /Add_107_output_0_splitncnn_1
Convolution      /Conv_418                1 1 /Add_107_output_0_splitncnn_1 /Relu_206_output_0 0=64 1=3 4=1 5=1 6=36864 9=1
Convolution      /Conv_419                1 1 /Relu_206_output_0 /Conv_419_output_0 0=64 1=3 4=1 5=1 6=36864
Split            splitncnn_207            1 2 /Conv_419_output_0 /Conv_419_output_0_splitncnn_0 /Conv_419_output_0_splitncnn_1
Pooling          /GlobalAveragePool_103   1 1 /Conv_419_output_0_splitncnn_1 /GlobalAveragePool_103_output_0 0=1 4=1
InnerProduct     /Conv_420                1 1 /GlobalAveragePool_103_output_0 /Relu_207_output_0 0=4 1=1 2=256 9=1
InnerProduct     /Conv_421                1 1 /Relu_207_output_0 /Sigmoid_103_output_0 0=64 1=1 2=256 9=4
BinaryOp         /Mul_104                 2 1 /Conv_419_output_0_splitncnn_0 /Sigmoid_103_output_0 /Mul_104_output_0 0=2
BinaryOp         /Add_108                 2 1 /Mul_104_output_0 /Add_107_output_0_splitncnn_0 /Add_108_output_0
Split            splitncnn_208            1 2 /Add_108_output_0 /Add_108_output_0_splitncnn_0 /Add_108_output_0_splitncnn_1
Convolution      /Conv_422                1 1 /Add_108_output_0_splitncnn_1 /Relu_208_output_0 0=64 1=3 4=1 5=1 6=36864 9=1
Convolution      /Conv_423                1 1 /Relu_208_output_0 /Conv_423_output_0 0=64 1=3 4=1 5=1 6=36864
Split            splitncnn_209            1 2 /Conv_423_output_0 /Conv_423_output_0_splitncnn_0 /Conv_423_output_0_splitncnn_1
Pooling          /GlobalAveragePool_104   1 1 /Conv_423_output_0_splitncnn_1 /GlobalAveragePool_104_output_0 0=1 4=1
InnerProduct     /Conv_424                1 1 /GlobalAveragePool_104_output_0 /Relu_209_output_0 0=4 1=1 2=256 9=1
InnerProduct     /Conv_425                1 1 /Relu_209_output_0 /Sigmoid_104_output_0 0=64 1=1 2=256 9=4
BinaryOp         /Mul_105                 2 1 /Conv_423_output_0_splitncnn_0 /Sigmoid_104_output_0 /Mul_105_output_0 0=2
BinaryOp         /Add_109                 2 1 /Mul_105_output_0 /Add_108_output_0_splitncnn_0 /Add_109_output_0
Split            splitncnn_210            1 2 /Add_109_output_0 /Add_109_output_0_splitncnn_0 /Add_109_output_0_splitncnn_1
Convolution      /Conv_426                1 1 /Add_109_output_0_splitncnn_1 /Relu_210_output_0 0=64 1=3 4=1 5=1 6=36864 9=1
Convolution      /Conv_427                1 1 /Relu_210_output_0 /Conv_427_output_0 0=64 1=3 4=1 5=1 6=36864
Split            splitncnn_211            1 2 /Conv_427_output_0 /Conv_427_output_0_splitncnn_0 /Conv_427_output_0_splitncnn_1
Pooling          /GlobalAveragePool_105   1 1 /Conv_427_output_0_splitncnn_1 /GlobalAveragePool_105_output_0 0=1 4=1
InnerProduct     /Conv_428                1 1 /GlobalAveragePool_105_output_0 /Relu_211_output_0 0=4 1=1 2=256 9=1
InnerProduct     /Conv_429                1 1 /Relu_211_output_0 /Sigmoid_105_output_0 0=64 1=1 2=256 9=4
BinaryOp         /Mul_106                 2 1 /Conv_427_output_0_splitncnn_0 /Sigmoid_105_output_0 /Mul_106_output_0 0=2
BinaryOp         /Add_110                 2 1 /Mul_106_output_0 /Add_109_output_0_splitncnn_0 /Add_110_output_0
Split            splitncnn_212            1 2 /Add_110_output_0 /Add_110_output_0_splitncnn_0 /Add_110_output_0_splitncnn_1
Convolution      /Conv_430                1 1 /Add_110_output_0_splitncnn_1 /Relu_212_output_0 0=64 1=3 4=1 5=1 6=36864 9=1
Convolution      /Conv_431                1 1 /Relu_212_output_0 /Conv_431_output_0 0=64 1=3 4=1 5=1 6=36864
Split            splitncnn_213            1 2 /Conv_431_output_0 /Conv_431_output_0_splitncnn_0 /Conv_431_output_0_splitncnn_1
Pooling          /GlobalAveragePool_106   1 1 /Conv_431_output_0_splitncnn_1 /GlobalAveragePool_106_output_0 0=1 4=1
InnerProduct     /Conv_432                1 1 /GlobalAveragePool_106_output_0 /Relu_213_output_0 0=4 1=1 2=256 9=1
InnerProduct     /Conv_433                1 1 /Relu_213_output_0 /Sigmoid_106_output_0 0=64 1=1 2=256 9=4
BinaryOp         /Mul_107                 2 1 /Conv_431_output_0_splitncnn_0 /Sigmoid_106_output_0 /Mul_107_output_0 0=2
BinaryOp         /Add_111                 2 1 /Mul_107_output_0 /Add_110_output_0_splitncnn_0 /Add_111_output_0
Split            splitncnn_214            1 2 /Add_111_output_0 /Add_111_output_0_splitncnn_0 /Add_111_output_0_splitncnn_1
Convolution      /Conv_434                1 1 /Add_111_output_0_splitncnn_1 /Relu_214_output_0 0=64 1=3 4=1 5=1 6=36864 9=1
Convolution      /Conv_435                1 1 /Relu_214_output_0 /Conv_435_output_0 0=64 1=3 4=1 5=1 6=36864
Split            splitncnn_215            1 2 /Conv_435_output_0 /Conv_435_output_0_splitncnn_0 /Conv_435_output_0_splitncnn_1
Pooling          /GlobalAveragePool_107   1 1 /Conv_435_output_0_splitncnn_1 /GlobalAveragePool_107_output_0 0=1 4=1
InnerProduct     /Conv_436                1 1 /GlobalAveragePool_107_output_0 /Relu_215_output_0 0=4 1=1 2=256 9=1
InnerProduct     /Conv_437                1 1 /Relu_215_output_0 /Sigmoid_107_output_0 0=64 1=1 2=256 9=4
BinaryOp         /Mul_108                 2 1 /Conv_435_output_0_splitncnn_0 /Sigmoid_107_output_0 /Mul_108_output_0 0=2
BinaryOp         /Add_112                 2 1 /Mul_108_output_0 /Add_111_output_0_splitncnn_0 /Add_112_output_0
Split            splitncnn_216            1 2 /Add_112_output_0 /Add_112_output_0_splitncnn_0 /Add_112_output_0_splitncnn_1
Convolution      /Conv_438                1 1 /Add_112_output_0_splitncnn_1 /Relu_216_output_0 0=64 1=3 4=1 5=1 6=36864 9=1
Convolution      /Conv_439                1 1 /Relu_216_output_0 /Conv_439_output_0 0=64 1=3 4=1 5=1 6=36864
Split            splitncnn_217            1 2 /Conv_439_output_0 /Conv_439_output_0_splitncnn_0 /Conv_439_output_0_splitncnn_1
Pooling          /GlobalAveragePool_108   1 1 /Conv_439_output_0_splitncnn_1 /GlobalAveragePool_108_output_0 0=1 4=1
InnerProduct     /Conv_440                1 1 /GlobalAveragePool_108_output_0 /Relu_217_output_0 0=4 1=1 2=256 9=1
InnerProduct     /Conv_441                1 1 /Relu_217_output_0 /Sigmoid_108_output_0 0=64 1=1 2=256 9=4
BinaryOp         /Mul_109                 2 1 /Conv_439_output_0_splitncnn_0 /Sigmoid_108_output_0 /Mul_109_output_0 0=2
BinaryOp         /Add_113                 2 1 /Mul_109_output_0 /Add_112_output_0_splitncnn_0 /Add_113_output_0
Split            splitncnn_218            1 2 /Add_113_output_0 /Add_113_output_0_splitncnn_0 /Add_113_output_0_splitncnn_1
Convolution      /Conv_442                1 1 /Add_113_output_0_splitncnn_1 /Relu_218_output_0 0=64 1=3 4=1 5=1 6=36864 9=1
Convolution      /Conv_443                1 1 /Relu_218_output_0 /Conv_443_output_0 0=64 1=3 4=1 5=1 6=36864
Split            splitncnn_219            1 2 /Conv_443_output_0 /Conv_443_output_0_splitncnn_0 /Conv_443_output_0_splitncnn_1
Pooling          /GlobalAveragePool_109   1 1 /Conv_443_output_0_splitncnn_1 /GlobalAveragePool_109_output_0 0=1 4=1
InnerProduct     /Conv_444                1 1 /GlobalAveragePool_109_output_0 /Relu_219_output_0 0=4 1=1 2=256 9=1
InnerProduct     /Conv_445                1 1 /Relu_219_output_0 /Sigmoid_109_output_0 0=64 1=1 2=256 9=4
BinaryOp         /Mul_110                 2 1 /Conv_443_output_0_splitncnn_0 /Sigmoid_109_output_0 /Mul_110_output_0 0=2
BinaryOp         /Add_114                 2 1 /Mul_110_output_0 /Add_113_output_0_splitncnn_0 /Add_114_output_0
Split            splitncnn_220            1 2 /Add_114_output_0 /Add_114_output_0_splitncnn_0 /Add_114_output_0_splitncnn_1
Convolution      /Conv_446                1 1 /Add_114_output_0_splitncnn_1 /Relu_220_output_0 0=64 1=3 4=1 5=1 6=36864 9=1
Convolution      /Conv_447                1 1 /Relu_220_output_0 /Conv_447_output_0 0=64 1=3 4=1 5=1 6=36864
Split            splitncnn_221            1 2 /Conv_447_output_0 /Conv_447_output_0_splitncnn_0 /Conv_447_output_0_splitncnn_1
Pooling          /GlobalAveragePool_110   1 1 /Conv_447_output_0_splitncnn_1 /GlobalAveragePool_110_output_0 0=1 4=1
InnerProduct     /Conv_448                1 1 /GlobalAveragePool_110_output_0 /Relu_221_output_0 0=4 1=1 2=256 9=1
InnerProduct     /Conv_449                1 1 /Relu_221_output_0 /Sigmoid_110_output_0 0=64 1=1 2=256 9=4
BinaryOp         /Mul_111                 2 1 /Conv_447_output_0_splitncnn_0 /Sigmoid_110_output_0 /Mul_111_output_0 0=2
BinaryOp         /Add_115                 2 1 /Mul_111_output_0 /Add_114_output_0_splitncnn_0 /Add_115_output_0
Split            splitncnn_222            1 2 /Add_115_output_0 /Add_115_output_0_splitncnn_0 /Add_115_output_0_splitncnn_1
Convolution      /Conv_450                1 1 /Add_115_output_0_splitncnn_1 /Relu_222_output_0 0=64 1=3 4=1 5=1 6=36864 9=1
Convolution      /Conv_451                1 1 /Relu_222_output_0 /Conv_451_output_0 0=64 1=3 4=1 5=1 6=36864
Split            splitncnn_223            1 2 /Conv_451_output_0 /Conv_451_output_0_splitncnn_0 /Conv_451_output_0_splitncnn_1
Pooling          /GlobalAveragePool_111   1 1 /Conv_451_output_0_splitncnn_1 /GlobalAveragePool_111_output_0 0=1 4=1
InnerProduct     /Conv_452                1 1 /GlobalAveragePool_111_output_0 /Relu_223_output_0 0=4 1=1 2=256 9=1
InnerProduct     /Conv_453                1 1 /Relu_223_output_0 /Sigmoid_111_output_0 0=64 1=1 2=256 9=4
BinaryOp         /Mul_112                 2 1 /Conv_451_output_0_splitncnn_0 /Sigmoid_111_output_0 /Mul_112_output_0 0=2
BinaryOp         /Add_116                 2 1 /Mul_112_output_0 /Add_115_output_0_splitncnn_0 /Add_116_output_0
Split            splitncnn_224            1 2 /Add_116_output_0 /Add_116_output_0_splitncnn_0 /Add_116_output_0_splitncnn_1
Convolution      /Conv_454                1 1 /Add_116_output_0_splitncnn_1 /Relu_224_output_0 0=64 1=3 4=1 5=1 6=36864 9=1
Convolution      /Conv_455                1 1 /Relu_224_output_0 /Conv_455_output_0 0=64 1=3 4=1 5=1 6=36864
Split            splitncnn_225            1 2 /Conv_455_output_0 /Conv_455_output_0_splitncnn_0 /Conv_455_output_0_splitncnn_1
Pooling          /GlobalAveragePool_112   1 1 /Conv_455_output_0_splitncnn_1 /GlobalAveragePool_112_output_0 0=1 4=1
InnerProduct     /Conv_456                1 1 /GlobalAveragePool_112_output_0 /Relu_225_output_0 0=4 1=1 2=256 9=1
InnerProduct     /Conv_457                1 1 /Relu_225_output_0 /Sigmoid_112_output_0 0=64 1=1 2=256 9=4
BinaryOp         /Mul_113                 2 1 /Conv_455_output_0_splitncnn_0 /Sigmoid_112_output_0 /Mul_113_output_0 0=2
BinaryOp         /Add_117                 2 1 /Mul_113_output_0 /Add_116_output_0_splitncnn_0 /Add_117_output_0
Split            splitncnn_226            1 2 /Add_117_output_0 /Add_117_output_0_splitncnn_0 /Add_117_output_0_splitncnn_1
Convolution      /Conv_458                1 1 /Add_117_output_0_splitncnn_1 /Relu_226_output_0 0=64 1=3 4=1 5=1 6=36864 9=1
Convolution      /Conv_459                1 1 /Relu_226_output_0 /Conv_459_output_0 0=64 1=3 4=1 5=1 6=36864
Split            splitncnn_227            1 2 /Conv_459_output_0 /Conv_459_output_0_splitncnn_0 /Conv_459_output_0_splitncnn_1
Pooling          /GlobalAveragePool_113   1 1 /Conv_459_output_0_splitncnn_1 /GlobalAveragePool_113_output_0 0=1 4=1
InnerProduct     /Conv_460                1 1 /GlobalAveragePool_113_output_0 /Relu_227_output_0 0=4 1=1 2=256 9=1
InnerProduct     /Conv_461                1 1 /Relu_227_output_0 /Sigmoid_113_output_0 0=64 1=1 2=256 9=4
BinaryOp         /Mul_114                 2 1 /Conv_459_output_0_splitncnn_0 /Sigmoid_113_output_0 /Mul_114_output_0 0=2
BinaryOp         /Add_118                 2 1 /Mul_114_output_0 /Add_117_output_0_splitncnn_0 /Add_118_output_0
Split            splitncnn_228            1 2 /Add_118_output_0 /Add_118_output_0_splitncnn_0 /Add_118_output_0_splitncnn_1
Convolution      /Conv_462                1 1 /Add_118_output_0_splitncnn_1 /Relu_228_output_0 0=64 1=3 4=1 5=1 6=36864 9=1
Convolution      /Conv_463                1 1 /Relu_228_output_0 /Conv_463_output_0 0=64 1=3 4=1 5=1 6=36864
Split            splitncnn_229            1 2 /Conv_463_output_0 /Conv_463_output_0_splitncnn_0 /Conv_463_output_0_splitncnn_1
Pooling          /GlobalAveragePool_114   1 1 /Conv_463_output_0_splitncnn_1 /GlobalAveragePool_114_output_0 0=1 4=1
InnerProduct     /Conv_464                1 1 /GlobalAveragePool_114_output_0 /Relu_229_output_0 0=4 1=1 2=256 9=1
InnerProduct     /Conv_465                1 1 /Relu_229_output_0 /Sigmoid_114_output_0 0=64 1=1 2=256 9=4
BinaryOp         /Mul_115                 2 1 /Conv_463_output_0_splitncnn_0 /Sigmoid_114_output_0 /Mul_115_output_0 0=2
BinaryOp         /Add_119                 2 1 /Mul_115_output_0 /Add_118_output_0_splitncnn_0 /Add_119_output_0
Split            splitncnn_230            1 2 /Add_119_output_0 /Add_119_output_0_splitncnn_0 /Add_119_output_0_splitncnn_1
Convolution      /Conv_466                1 1 /Add_119_output_0_splitncnn_1 /Relu_230_output_0 0=64 1=3 4=1 5=1 6=36864 9=1
Convolution      /Conv_467                1 1 /Relu_230_output_0 /Conv_467_output_0 0=64 1=3 4=1 5=1 6=36864
Split            splitncnn_231            1 2 /Conv_467_output_0 /Conv_467_output_0_splitncnn_0 /Conv_467_output_0_splitncnn_1
Pooling          /GlobalAveragePool_115   1 1 /Conv_467_output_0_splitncnn_1 /GlobalAveragePool_115_output_0 0=1 4=1
InnerProduct     /Conv_468                1 1 /GlobalAveragePool_115_output_0 /Relu_231_output_0 0=4 1=1 2=256 9=1
InnerProduct     /Conv_469                1 1 /Relu_231_output_0 /Sigmoid_115_output_0 0=64 1=1 2=256 9=4
BinaryOp         /Mul_116                 2 1 /Conv_467_output_0_splitncnn_0 /Sigmoid_115_output_0 /Mul_116_output_0 0=2
BinaryOp         /Add_120                 2 1 /Mul_116_output_0 /Add_119_output_0_splitncnn_0 /Add_120_output_0
Split            splitncnn_232            1 2 /Add_120_output_0 /Add_120_output_0_splitncnn_0 /Add_120_output_0_splitncnn_1
Convolution      /Conv_470                1 1 /Add_120_output_0_splitncnn_1 /Relu_232_output_0 0=64 1=3 4=1 5=1 6=36864 9=1
Convolution      /Conv_471                1 1 /Relu_232_output_0 /Conv_471_output_0 0=64 1=3 4=1 5=1 6=36864
Split            splitncnn_233            1 2 /Conv_471_output_0 /Conv_471_output_0_splitncnn_0 /Conv_471_output_0_splitncnn_1
Pooling          /GlobalAveragePool_116   1 1 /Conv_471_output_0_splitncnn_1 /GlobalAveragePool_116_output_0 0=1 4=1
InnerProduct     /Conv_472                1 1 /GlobalAveragePool_116_output_0 /Relu_233_output_0 0=4 1=1 2=256 9=1
InnerProduct     /Conv_473                1 1 /Relu_233_output_0 /Sigmoid_116_output_0 0=64 1=1 2=256 9=4
BinaryOp         /Mul_117                 2 1 /Conv_471_output_0_splitncnn_0 /Sigmoid_116_output_0 /Mul_117_output_0 0=2
BinaryOp         /Add_121                 2 1 /Mul_117_output_0 /Add_120_output_0_splitncnn_0 /Add_121_output_0
Split            splitncnn_234            1 2 /Add_121_output_0 /Add_121_output_0_splitncnn_0 /Add_121_output_0_splitncnn_1
Convolution      /Conv_474                1 1 /Add_121_output_0_splitncnn_1 /Relu_234_output_0 0=64 1=3 4=1 5=1 6=36864 9=1
Convolution      /Conv_475                1 1 /Relu_234_output_0 /Conv_475_output_0 0=64 1=3 4=1 5=1 6=36864
Split            splitncnn_235            1 2 /Conv_475_output_0 /Conv_475_output_0_splitncnn_0 /Conv_475_output_0_splitncnn_1
Pooling          /GlobalAveragePool_117   1 1 /Conv_475_output_0_splitncnn_1 /GlobalAveragePool_117_output_0 0=1 4=1
InnerProduct     /Conv_476                1 1 /GlobalAveragePool_117_output_0 /Relu_235_output_0 0=4 1=1 2=256 9=1
InnerProduct     /Conv_477                1 1 /Relu_235_output_0 /Sigmoid_117_output_0 0=64 1=1 2=256 9=4
BinaryOp         /Mul_118                 2 1 /Conv_475_output_0_splitncnn_0 /Sigmoid_117_output_0 /Mul_118_output_0 0=2
BinaryOp         /Add_122                 2 1 /Mul_118_output_0 /Add_121_output_0_splitncnn_0 /Add_122_output_0
Split            splitncnn_236            1 2 /Add_122_output_0 /Add_122_output_0_splitncnn_0 /Add_122_output_0_splitncnn_1
Convolution      /Conv_478                1 1 /Add_122_output_0_splitncnn_1 /Relu_236_output_0 0=64 1=3 4=1 5=1 6=36864 9=1
Convolution      /Conv_479                1 1 /Relu_236_output_0 /Conv_479_output_0 0=64 1=3 4=1 5=1 6=36864
Split            splitncnn_237            1 2 /Conv_479_output_0 /Conv_479_output_0_splitncnn_0 /Conv_479_output_0_splitncnn_1
Pooling          /GlobalAveragePool_118   1 1 /Conv_479_output_0_splitncnn_1 /GlobalAveragePool_118_output_0 0=1 4=1
InnerProduct     /Conv_480                1 1 /GlobalAveragePool_118_output_0 /Relu_237_output_0 0=4 1=1 2=256 9=1
InnerProduct     /Conv_481                1 1 /Relu_237_output_0 /Sigmoid_118_output_0 0=64 1=1 2=256 9=4
BinaryOp         /Mul_119                 2 1 /Conv_479_output_0_splitncnn_0 /Sigmoid_118_output_0 /Mul_119_output_0 0=2
BinaryOp         /Add_123                 2 1 /Mul_119_output_0 /Add_122_output_0_splitncnn_0 /Add_123_output_0
Split            splitncnn_238            1 2 /Add_123_output_0 /Add_123_output_0_splitncnn_0 /Add_123_output_0_splitncnn_1
Convolution      /Conv_482                1 1 /Add_123_output_0_splitncnn_1 /Relu_238_output_0 0=64 1=3 4=1 5=1 6=36864 9=1
Convolution      /Conv_483                1 1 /Relu_238_output_0 /Conv_483_output_0 0=64 1=3 4=1 5=1 6=36864
Split            splitncnn_239            1 2 /Conv_483_output_0 /Conv_483_output_0_splitncnn_0 /Conv_483_output_0_splitncnn_1
Pooling          /GlobalAveragePool_119   1 1 /Conv_483_output_0_splitncnn_1 /GlobalAveragePool_119_output_0 0=1 4=1
InnerProduct     /Conv_484                1 1 /GlobalAveragePool_119_output_0 /Relu_239_output_0 0=4 1=1 2=256 9=1
InnerProduct     /Conv_485                1 1 /Relu_239_output_0 /Sigmoid_119_output_0 0=64 1=1 2=256 9=4
BinaryOp         /Mul_120                 2 1 /Conv_483_output_0_splitncnn_0 /Sigmoid_119_output_0 /Mul_120_output_0 0=2
BinaryOp         /Add_124                 2 1 /Mul_120_output_0 /Add_123_output_0_splitncnn_0 /Add_124_output_0
Convolution      /Conv_486                1 1 /Add_124_output_0 /Conv_486_output_0 0=64 1=3 4=1 5=1 6=36864
BinaryOp         /Add_125                 2 1 /Conv_486_output_0 /Add_104_output_0_splitncnn_0 /Add_125_output_0
Split            splitncnn_240            1 3 /Add_125_output_0 /Add_125_output_0_splitncnn_0 /Add_125_output_0_splitncnn_1 /Add_125_output_0_splitncnn_2
Convolution      /Conv_487                1 1 /Add_125_output_0_splitncnn_2 /Relu_240_output_0 0=64 1=3 4=1 5=1 6=36864 9=1
Convolution      /Conv_488                1 1 /Relu_240_output_0 /Conv_488_output_0 0=64 1=3 4=1 5=1 6=36864
Split            splitncnn_241            1 2 /Conv_488_output_0 /Conv_488_output_0_splitncnn_0 /Conv_488_output_0_splitncnn_1
Pooling          /GlobalAveragePool_120   1 1 /Conv_488_output_0_splitncnn_1 /GlobalAveragePool_120_output_0 0=1 4=1
InnerProduct     /Conv_489                1 1 /GlobalAveragePool_120_output_0 /Relu_241_output_0 0=4 1=1 2=256 9=1
InnerProduct     /Conv_490                1 1 /Relu_241_output_0 /Sigmoid_120_output_0 0=64 1=1 2=256 9=4
BinaryOp         /Mul_121                 2 1 /Conv_488_output_0_splitncnn_0 /Sigmoid_120_output_0 /Mul_121_output_0 0=2
BinaryOp         /Add_126                 2 1 /Mul_121_output_0 /Add_125_output_0_splitncnn_1 /Add_126_output_0
Split            splitncnn_242            1 2 /Add_126_output_0 /Add_126_output_0_splitncnn_0 /Add_126_output_0_splitncnn_1
Convolution      /Conv_491                1 1 /Add_126_output_0_splitncnn_1 /Relu_242_output_0 0=64 1=3 4=1 5=1 6=36864 9=1
Convolution      /Conv_492                1 1 /Relu_242_output_0 /Conv_492_output_0 0=64 1=3 4=1 5=1 6=36864
Split            splitncnn_243            1 2 /Conv_492_output_0 /Conv_492_output_0_splitncnn_0 /Conv_492_output_0_splitncnn_1
Pooling          /GlobalAveragePool_121   1 1 /Conv_492_output_0_splitncnn_1 /GlobalAveragePool_121_output_0 0=1 4=1
InnerProduct     /Conv_493                1 1 /GlobalAveragePool_121_output_0 /Relu_243_output_0 0=4 1=1 2=256 9=1
InnerProduct     /Conv_494                1 1 /Relu_243_output_0 /Sigmoid_121_output_0 0=64 1=1 2=256 9=4
BinaryOp         /Mul_122                 2 1 /Conv_492_output_0_splitncnn_0 /Sigmoid_121_output_0 /Mul_122_output_0 0=2
BinaryOp         /Add_127                 2 1 /Mul_122_output_0 /Add_126_output_0_splitncnn_0 /Add_127_output_0
Split            splitncnn_244            1 2 /Add_127_output_0 /Add_127_output_0_splitncnn_0 /Add_127_output_0_splitncnn_1
Convolution      /Conv_495                1 1 /Add_127_output_0_splitncnn_1 /Relu_244_output_0 0=64 1=3 4=1 5=1 6=36864 9=1
Convolution      /Conv_496                1 1 /Relu_244_output_0 /Conv_496_output_0 0=64 1=3 4=1 5=1 6=36864
Split            splitncnn_245            1 2 /Conv_496_output_0 /Conv_496_output_0_splitncnn_0 /Conv_496_output_0_splitncnn_1
Pooling          /GlobalAveragePool_122   1 1 /Conv_496_output_0_splitncnn_1 /GlobalAveragePool_122_output_0 0=1 4=1
InnerProduct     /Conv_497                1 1 /GlobalAveragePool_122_output_0 /Relu_245_output_0 0=4 1=1 2=256 9=1
InnerProduct     /Conv_498                1 1 /Relu_245_output_0 /Sigmoid_122_output_0 0=64 1=1 2=256 9=4
BinaryOp         /Mul_123                 2 1 /Conv_496_output_0_splitncnn_0 /Sigmoid_122_output_0 /Mul_123_output_0 0=2
BinaryOp         /Add_128                 2 1 /Mul_123_output_0 /Add_127_output_0_splitncnn_0 /Add_128_output_0
Split            splitncnn_246            1 2 /Add_128_output_0 /Add_128_output_0_splitncnn_0 /Add_128_output_0_splitncnn_1
Convolution      /Conv_499                1 1 /Add_128_output_0_splitncnn_1 /Relu_246_output_0 0=64 1=3 4=1 5=1 6=36864 9=1
Convolution      /Conv_500                1 1 /Relu_246_output_0 /Conv_500_output_0 0=64 1=3 4=1 5=1 6=36864
Split            splitncnn_247            1 2 /Conv_500_output_0 /Conv_500_output_0_splitncnn_0 /Conv_500_output_0_splitncnn_1
Pooling          /GlobalAveragePool_123   1 1 /Conv_500_output_0_splitncnn_1 /GlobalAveragePool_123_output_0 0=1 4=1
InnerProduct     /Conv_501                1 1 /GlobalAveragePool_123_output_0 /Relu_247_output_0 0=4 1=1 2=256 9=1
InnerProduct     /Conv_502                1 1 /Relu_247_output_0 /Sigmoid_123_output_0 0=64 1=1 2=256 9=4
BinaryOp         /Mul_124                 2 1 /Conv_500_output_0_splitncnn_0 /Sigmoid_123_output_0 /Mul_124_output_0 0=2
BinaryOp         /Add_129                 2 1 /Mul_124_output_0 /Add_128_output_0_splitncnn_0 /Add_129_output_0
Split            splitncnn_248            1 2 /Add_129_output_0 /Add_129_output_0_splitncnn_0 /Add_129_output_0_splitncnn_1
Convolution      /Conv_503                1 1 /Add_129_output_0_splitncnn_1 /Relu_248_output_0 0=64 1=3 4=1 5=1 6=36864 9=1
Convolution      /Conv_504                1 1 /Relu_248_output_0 /Conv_504_output_0 0=64 1=3 4=1 5=1 6=36864
Split            splitncnn_249            1 2 /Conv_504_output_0 /Conv_504_output_0_splitncnn_0 /Conv_504_output_0_splitncnn_1
Pooling          /GlobalAveragePool_124   1 1 /Conv_504_output_0_splitncnn_1 /GlobalAveragePool_124_output_0 0=1 4=1
InnerProduct     /Conv_505                1 1 /GlobalAveragePool_124_output_0 /Relu_249_output_0 0=4 1=1 2=256 9=1
InnerProduct     /Conv_506                1 1 /Relu_249_output_0 /Sigmoid_124_output_0 0=64 1=1 2=256 9=4
BinaryOp         /Mul_125                 2 1 /Conv_504_output_0_splitncnn_0 /Sigmoid_124_output_0 /Mul_125_output_0 0=2
BinaryOp         /Add_130                 2 1 /Mul_125_output_0 /Add_129_output_0_splitncnn_0 /Add_130_output_0
Split            splitncnn_250            1 2 /Add_130_output_0 /Add_130_output_0_splitncnn_0 /Add_130_output_0_splitncnn_1
Convolution      /Conv_507                1 1 /Add_130_output_0_splitncnn_1 /Relu_250_output_0 0=64 1=3 4=1 5=1 6=36864 9=1
Convolution      /Conv_508                1 1 /Relu_250_output_0 /Conv_508_output_0 0=64 1=3 4=1 5=1 6=36864
Split            splitncnn_251            1 2 /Conv_508_output_0 /Conv_508_output_0_splitncnn_0 /Conv_508_output_0_splitncnn_1
Pooling          /GlobalAveragePool_125   1 1 /Conv_508_output_0_splitncnn_1 /GlobalAveragePool_125_output_0 0=1 4=1
InnerProduct     /Conv_509                1 1 /GlobalAveragePool_125_output_0 /Relu_251_output_0 0=4 1=1 2=256 9=1
InnerProduct     /Conv_510                1 1 /Relu_251_output_0 /Sigmoid_125_output_0 0=64 1=1 2=256 9=4
BinaryOp         /Mul_126                 2 1 /Conv_508_output_0_splitncnn_0 /Sigmoid_125_output_0 /Mul_126_output_0 0=2
BinaryOp         /Add_131                 2 1 /Mul_126_output_0 /Add_130_output_0_splitncnn_0 /Add_131_output_0
Split            splitncnn_252            1 2 /Add_131_output_0 /Add_131_output_0_splitncnn_0 /Add_131_output_0_splitncnn_1
Convolution      /Conv_511                1 1 /Add_131_output_0_splitncnn_1 /Relu_252_output_0 0=64 1=3 4=1 5=1 6=36864 9=1
Convolution      /Conv_512                1 1 /Relu_252_output_0 /Conv_512_output_0 0=64 1=3 4=1 5=1 6=36864
Split            splitncnn_253            1 2 /Conv_512_output_0 /Conv_512_output_0_splitncnn_0 /Conv_512_output_0_splitncnn_1
Pooling          /GlobalAveragePool_126   1 1 /Conv_512_output_0_splitncnn_1 /GlobalAveragePool_126_output_0 0=1 4=1
InnerProduct     /Conv_513                1 1 /GlobalAveragePool_126_output_0 /Relu_253_output_0 0=4 1=1 2=256 9=1
InnerProduct     /Conv_514                1 1 /Relu_253_output_0 /Sigmoid_126_output_0 0=64 1=1 2=256 9=4
BinaryOp         /Mul_127                 2 1 /Conv_512_output_0_splitncnn_0 /Sigmoid_126_output_0 /Mul_127_output_0 0=2
BinaryOp         /Add_132                 2 1 /Mul_127_output_0 /Add_131_output_0_splitncnn_0 /Add_132_output_0
Split            splitncnn_254            1 2 /Add_132_output_0 /Add_132_output_0_splitncnn_0 /Add_132_output_0_splitncnn_1
Convolution      /Conv_515                1 1 /Add_132_output_0_splitncnn_1 /Relu_254_output_0 0=64 1=3 4=1 5=1 6=36864 9=1
Convolution      /Conv_516                1 1 /Relu_254_output_0 /Conv_516_output_0 0=64 1=3 4=1 5=1 6=36864
Split            splitncnn_255            1 2 /Conv_516_output_0 /Conv_516_output_0_splitncnn_0 /Conv_516_output_0_splitncnn_1
Pooling          /GlobalAveragePool_127   1 1 /Conv_516_output_0_splitncnn_1 /GlobalAveragePool_127_output_0 0=1 4=1
InnerProduct     /Conv_517                1 1 /GlobalAveragePool_127_output_0 /Relu_255_output_0 0=4 1=1 2=256 9=1
InnerProduct     /Conv_518                1 1 /Relu_255_output_0 /Sigmoid_127_output_0 0=64 1=1 2=256 9=4
BinaryOp         /Mul_128                 2 1 /Conv_516_output_0_splitncnn_0 /Sigmoid_127_output_0 /Mul_128_output_0 0=2
BinaryOp         /Add_133                 2 1 /Mul_128_output_0 /Add_132_output_0_splitncnn_0 /Add_133_output_0
Split            splitncnn_256            1 2 /Add_133_output_0 /Add_133_output_0_splitncnn_0 /Add_133_output_0_splitncnn_1
Convolution      /Conv_519                1 1 /Add_133_output_0_splitncnn_1 /Relu_256_output_0 0=64 1=3 4=1 5=1 6=36864 9=1
Convolution      /Conv_520                1 1 /Relu_256_output_0 /Conv_520_output_0 0=64 1=3 4=1 5=1 6=36864
Split            splitncnn_257            1 2 /Conv_520_output_0 /Conv_520_output_0_splitncnn_0 /Conv_520_output_0_splitncnn_1
Pooling          /GlobalAveragePool_128   1 1 /Conv_520_output_0_splitncnn_1 /GlobalAveragePool_128_output_0 0=1 4=1
InnerProduct     /Conv_521                1 1 /GlobalAveragePool_128_output_0 /Relu_257_output_0 0=4 1=1 2=256 9=1
InnerProduct     /Conv_522                1 1 /Relu_257_output_0 /Sigmoid_128_output_0 0=64 1=1 2=256 9=4
BinaryOp         /Mul_129                 2 1 /Conv_520_output_0_splitncnn_0 /Sigmoid_128_output_0 /Mul_129_output_0 0=2
BinaryOp         /Add_134                 2 1 /Mul_129_output_0 /Add_133_output_0_splitncnn_0 /Add_134_output_0
Split            splitncnn_258            1 2 /Add_134_output_0 /Add_134_output_0_splitncnn_0 /Add_134_output_0_splitncnn_1
Convolution      /Conv_523                1 1 /Add_134_output_0_splitncnn_1 /Relu_258_output_0 0=64 1=3 4=1 5=1 6=36864 9=1
Convolution      /Conv_524                1 1 /Relu_258_output_0 /Conv_524_output_0 0=64 1=3 4=1 5=1 6=36864
Split            splitncnn_259            1 2 /Conv_524_output_0 /Conv_524_output_0_splitncnn_0 /Conv_524_output_0_splitncnn_1
Pooling          /GlobalAveragePool_129   1 1 /Conv_524_output_0_splitncnn_1 /GlobalAveragePool_129_output_0 0=1 4=1
InnerProduct     /Conv_525                1 1 /GlobalAveragePool_129_output_0 /Relu_259_output_0 0=4 1=1 2=256 9=1
InnerProduct     /Conv_526                1 1 /Relu_259_output_0 /Sigmoid_129_output_0 0=64 1=1 2=256 9=4
BinaryOp         /Mul_130                 2 1 /Conv_524_output_0_splitncnn_0 /Sigmoid_129_output_0 /Mul_130_output_0 0=2
BinaryOp         /Add_135                 2 1 /Mul_130_output_0 /Add_134_output_0_splitncnn_0 /Add_135_output_0
Split            splitncnn_260            1 2 /Add_135_output_0 /Add_135_output_0_splitncnn_0 /Add_135_output_0_splitncnn_1
Convolution      /Conv_527                1 1 /Add_135_output_0_splitncnn_1 /Relu_260_output_0 0=64 1=3 4=1 5=1 6=36864 9=1
Convolution      /Conv_528                1 1 /Relu_260_output_0 /Conv_528_output_0 0=64 1=3 4=1 5=1 6=36864
Split            splitncnn_261            1 2 /Conv_528_output_0 /Conv_528_output_0_splitncnn_0 /Conv_528_output_0_splitncnn_1
Pooling          /GlobalAveragePool_130   1 1 /Conv_528_output_0_splitncnn_1 /GlobalAveragePool_130_output_0 0=1 4=1
InnerProduct     /Conv_529                1 1 /GlobalAveragePool_130_output_0 /Relu_261_output_0 0=4 1=1 2=256 9=1
InnerProduct     /Conv_530                1 1 /Relu_261_output_0 /Sigmoid_130_output_0 0=64 1=1 2=256 9=4
BinaryOp         /Mul_131                 2 1 /Conv_528_output_0_splitncnn_0 /Sigmoid_130_output_0 /Mul_131_output_0 0=2
BinaryOp         /Add_136                 2 1 /Mul_131_output_0 /Add_135_output_0_splitncnn_0 /Add_136_output_0
Split            splitncnn_262            1 2 /Add_136_output_0 /Add_136_output_0_splitncnn_0 /Add_136_output_0_splitncnn_1
Convolution      /Conv_531                1 1 /Add_136_output_0_splitncnn_1 /Relu_262_output_0 0=64 1=3 4=1 5=1 6=36864 9=1
Convolution      /Conv_532                1 1 /Relu_262_output_0 /Conv_532_output_0 0=64 1=3 4=1 5=1 6=36864
Split            splitncnn_263            1 2 /Conv_532_output_0 /Conv_532_output_0_splitncnn_0 /Conv_532_output_0_splitncnn_1
Pooling          /GlobalAveragePool_131   1 1 /Conv_532_output_0_splitncnn_1 /GlobalAveragePool_131_output_0 0=1 4=1
InnerProduct     /Conv_533                1 1 /GlobalAveragePool_131_output_0 /Relu_263_output_0 0=4 1=1 2=256 9=1
InnerProduct     /Conv_534                1 1 /Relu_263_output_0 /Sigmoid_131_output_0 0=64 1=1 2=256 9=4
BinaryOp         /Mul_132                 2 1 /Conv_532_output_0_splitncnn_0 /Sigmoid_131_output_0 /Mul_132_output_0 0=2
BinaryOp         /Add_137                 2 1 /Mul_132_output_0 /Add_136_output_0_splitncnn_0 /Add_137_output_0
Split            splitncnn_264            1 2 /Add_137_output_0 /Add_137_output_0_splitncnn_0 /Add_137_output_0_splitncnn_1
Convolution      /Conv_535                1 1 /Add_137_output_0_splitncnn_1 /Relu_264_output_0 0=64 1=3 4=1 5=1 6=36864 9=1
Convolution      /Conv_536                1 1 /Relu_264_output_0 /Conv_536_output_0 0=64 1=3 4=1 5=1 6=36864
Split            splitncnn_265            1 2 /Conv_536_output_0 /Conv_536_output_0_splitncnn_0 /Conv_536_output_0_splitncnn_1
Pooling          /GlobalAveragePool_132   1 1 /Conv_536_output_0_splitncnn_1 /GlobalAveragePool_132_output_0 0=1 4=1
InnerProduct     /Conv_537                1 1 /GlobalAveragePool_132_output_0 /Relu_265_output_0 0=4 1=1 2=256 9=1
InnerProduct     /Conv_538                1 1 /Relu_265_output_0 /Sigmoid_132_output_0 0=64 1=1 2=256 9=4
BinaryOp         /Mul_133                 2 1 /Conv_536_output_0_splitncnn_0 /Sigmoid_132_output_0 /Mul_133_output_0 0=2
BinaryOp         /Add_138                 2 1 /Mul_133_output_0 /Add_137_output_0_splitncnn_0 /Add_138_output_0
Split            splitncnn_266            1 2 /Add_138_output_0 /Add_138_output_0_splitncnn_0 /Add_138_output_0_splitncnn_1
Convolution      /Conv_539                1 1 /Add_138_output_0_splitncnn_1 /Relu_266_output_0 0=64 1=3 4=1 5=1 6=36864 9=1
Convolution      /Conv_540                1 1 /Relu_266_output_0 /Conv_540_output_0 0=64 1=3 4=1 5=1 6=36864
Split            splitncnn_267            1 2 /Conv_540_output_0 /Conv_540_output_0_splitncnn_0 /Conv_540_output_0_splitncnn_1
Pooling          /GlobalAveragePool_133   1 1 /Conv_540_output_0_splitncnn_1 /GlobalAveragePool_133_output_0 0=1 4=1
InnerProduct     /Conv_541                1 1 /GlobalAveragePool_133_output_0 /Relu_267_output_0 0=4 1=1 2=256 9=1
InnerProduct     /Conv_542                1 1 /Relu_267_output_0 /Sigmoid_133_output_0 0=64 1=1 2=256 9=4
BinaryOp         /Mul_134                 2 1 /Conv_540_output_0_splitncnn_0 /Sigmoid_133_output_0 /Mul_134_output_0 0=2
BinaryOp         /Add_139                 2 1 /Mul_134_output_0 /Add_138_output_0_splitncnn_0 /Add_139_output_0
Split            splitncnn_268            1 2 /Add_139_output_0 /Add_139_output_0_splitncnn_0 /Add_139_output_0_splitncnn_1
Convolution      /Conv_543                1 1 /Add_139_output_0_splitncnn_1 /Relu_268_output_0 0=64 1=3 4=1 5=1 6=36864 9=1
Convolution      /Conv_544                1 1 /Relu_268_output_0 /Conv_544_output_0 0=64 1=3 4=1 5=1 6=36864
Split            splitncnn_269            1 2 /Conv_544_output_0 /Conv_544_output_0_splitncnn_0 /Conv_544_output_0_splitncnn_1
Pooling          /GlobalAveragePool_134   1 1 /Conv_544_output_0_splitncnn_1 /GlobalAveragePool_134_output_0 0=1 4=1
InnerProduct     /Conv_545                1 1 /GlobalAveragePool_134_output_0 /Relu_269_output_0 0=4 1=1 2=256 9=1
InnerProduct     /Conv_546                1 1 /Relu_269_output_0 /Sigmoid_134_output_0 0=64 1=1 2=256 9=4
BinaryOp         /Mul_135                 2 1 /Conv_544_output_0_splitncnn_0 /Sigmoid_134_output_0 /Mul_135_output_0 0=2
BinaryOp         /Add_140                 2 1 /Mul_135_output_0 /Add_139_output_0_splitncnn_0 /Add_140_output_0
Split            splitncnn_270            1 2 /Add_140_output_0 /Add_140_output_0_splitncnn_0 /Add_140_output_0_splitncnn_1
Convolution      /Conv_547                1 1 /Add_140_output_0_splitncnn_1 /Relu_270_output_0 0=64 1=3 4=1 5=1 6=36864 9=1
Convolution      /Conv_548                1 1 /Relu_270_output_0 /Conv_548_output_0 0=64 1=3 4=1 5=1 6=36864
Split            splitncnn_271            1 2 /Conv_548_output_0 /Conv_548_output_0_splitncnn_0 /Conv_548_output_0_splitncnn_1
Pooling          /GlobalAveragePool_135   1 1 /Conv_548_output_0_splitncnn_1 /GlobalAveragePool_135_output_0 0=1 4=1
InnerProduct     /Conv_549                1 1 /GlobalAveragePool_135_output_0 /Relu_271_output_0 0=4 1=1 2=256 9=1
InnerProduct     /Conv_550                1 1 /Relu_271_output_0 /Sigmoid_135_output_0 0=64 1=1 2=256 9=4
BinaryOp         /Mul_136                 2 1 /Conv_548_output_0_splitncnn_0 /Sigmoid_135_output_0 /Mul_136_output_0 0=2
BinaryOp         /Add_141                 2 1 /Mul_136_output_0 /Add_140_output_0_splitncnn_0 /Add_141_output_0
Split            splitncnn_272            1 2 /Add_141_output_0 /Add_141_output_0_splitncnn_0 /Add_141_output_0_splitncnn_1
Convolution      /Conv_551                1 1 /Add_141_output_0_splitncnn_1 /Relu_272_output_0 0=64 1=3 4=1 5=1 6=36864 9=1
Convolution      /Conv_552                1 1 /Relu_272_output_0 /Conv_552_output_0 0=64 1=3 4=1 5=1 6=36864
Split            splitncnn_273            1 2 /Conv_552_output_0 /Conv_552_output_0_splitncnn_0 /Conv_552_output_0_splitncnn_1
Pooling          /GlobalAveragePool_136   1 1 /Conv_552_output_0_splitncnn_1 /GlobalAveragePool_136_output_0 0=1 4=1
InnerProduct     /Conv_553                1 1 /GlobalAveragePool_136_output_0 /Relu_273_output_0 0=4 1=1 2=256 9=1
InnerProduct     /Conv_554                1 1 /Relu_273_output_0 /Sigmoid_136_output_0 0=64 1=1 2=256 9=4
BinaryOp         /Mul_137                 2 1 /Conv_552_output_0_splitncnn_0 /Sigmoid_136_output_0 /Mul_137_output_0 0=2
BinaryOp         /Add_142                 2 1 /Mul_137_output_0 /Add_141_output_0_splitncnn_0 /Add_142_output_0
Split            splitncnn_274            1 2 /Add_142_output_0 /Add_142_output_0_splitncnn_0 /Add_142_output_0_splitncnn_1
Convolution      /Conv_555                1 1 /Add_142_output_0_splitncnn_1 /Relu_274_output_0 0=64 1=3 4=1 5=1 6=36864 9=1
Convolution      /Conv_556                1 1 /Relu_274_output_0 /Conv_556_output_0 0=64 1=3 4=1 5=1 6=36864
Split            splitncnn_275            1 2 /Conv_556_output_0 /Conv_556_output_0_splitncnn_0 /Conv_556_output_0_splitncnn_1
Pooling          /GlobalAveragePool_137   1 1 /Conv_556_output_0_splitncnn_1 /GlobalAveragePool_137_output_0 0=1 4=1
InnerProduct     /Conv_557                1 1 /GlobalAveragePool_137_output_0 /Relu_275_output_0 0=4 1=1 2=256 9=1
InnerProduct     /Conv_558                1 1 /Relu_275_output_0 /Sigmoid_137_output_0 0=64 1=1 2=256 9=4
BinaryOp         /Mul_138                 2 1 /Conv_556_output_0_splitncnn_0 /Sigmoid_137_output_0 /Mul_138_output_0 0=2
BinaryOp         /Add_143                 2 1 /Mul_138_output_0 /Add_142_output_0_splitncnn_0 /Add_143_output_0
Split            splitncnn_276            1 2 /Add_143_output_0 /Add_143_output_0_splitncnn_0 /Add_143_output_0_splitncnn_1
Convolution      /Conv_559                1 1 /Add_143_output_0_splitncnn_1 /Relu_276_output_0 0=64 1=3 4=1 5=1 6=36864 9=1
Convolution      /Conv_560                1 1 /Relu_276_output_0 /Conv_560_output_0 0=64 1=3 4=1 5=1 6=36864
Split            splitncnn_277            1 2 /Conv_560_output_0 /Conv_560_output_0_splitncnn_0 /Conv_560_output_0_splitncnn_1
Pooling          /GlobalAveragePool_138   1 1 /Conv_560_output_0_splitncnn_1 /GlobalAveragePool_138_output_0 0=1 4=1
InnerProduct     /Conv_561                1 1 /GlobalAveragePool_138_output_0 /Relu_277_output_0 0=4 1=1 2=256 9=1
InnerProduct     /Conv_562                1 1 /Relu_277_output_0 /Sigmoid_138_output_0 0=64 1=1 2=256 9=4
BinaryOp         /Mul_139                 2 1 /Conv_560_output_0_splitncnn_0 /Sigmoid_138_output_0 /Mul_139_output_0 0=2
BinaryOp         /Add_144                 2 1 /Mul_139_output_0 /Add_143_output_0_splitncnn_0 /Add_144_output_0
Split            splitncnn_278            1 2 /Add_144_output_0 /Add_144_output_0_splitncnn_0 /Add_144_output_0_splitncnn_1
Convolution      /Conv_563                1 1 /Add_144_output_0_splitncnn_1 /Relu_278_output_0 0=64 1=3 4=1 5=1 6=36864 9=1
Convolution      /Conv_564                1 1 /Relu_278_output_0 /Conv_564_output_0 0=64 1=3 4=1 5=1 6=36864
Split            splitncnn_279            1 2 /Conv_564_output_0 /Conv_564_output_0_splitncnn_0 /Conv_564_output_0_splitncnn_1
Pooling          /GlobalAveragePool_139   1 1 /Conv_564_output_0_splitncnn_1 /GlobalAveragePool_139_output_0 0=1 4=1
InnerProduct     /Conv_565                1 1 /GlobalAveragePool_139_output_0 /Relu_279_output_0 0=4 1=1 2=256 9=1
InnerProduct     /Conv_566                1 1 /Relu_279_output_0 /Sigmoid_139_output_0 0=64 1=1 2=256 9=4
BinaryOp         /Mul_140                 2 1 /Conv_564_output_0_splitncnn_0 /Sigmoid_139_output_0 /Mul_140_output_0 0=2
BinaryOp         /Add_145                 2 1 /Mul_140_output_0 /Add_144_output_0_splitncnn_0 /Add_145_output_0
Convolution      /Conv_567                1 1 /Add_145_output_0 /Conv_567_output_0 0=64 1=3 4=1 5=1 6=36864
BinaryOp         /Add_146                 2 1 /Conv_567_output_0 /Add_125_output_0_splitncnn_0 /Add_146_output_0
Split            splitncnn_280            1 3 /Add_146_output_0 /Add_146_output_0_splitncnn_0 /Add_146_output_0_splitncnn_1 /Add_146_output_0_splitncnn_2
Convolution      /Conv_568                1 1 /Add_146_output_0_splitncnn_2 /Relu_280_output_0 0=64 1=3 4=1 5=1 6=36864 9=1
Convolution      /Conv_569                1 1 /Relu_280_output_0 /Conv_569_output_0 0=64 1=3 4=1 5=1 6=36864
Split            splitncnn_281            1 2 /Conv_569_output_0 /Conv_569_output_0_splitncnn_0 /Conv_569_output_0_splitncnn_1
Pooling          /GlobalAveragePool_140   1 1 /Conv_569_output_0_splitncnn_1 /GlobalAveragePool_140_output_0 0=1 4=1
InnerProduct     /Conv_570                1 1 /GlobalAveragePool_140_output_0 /Relu_281_output_0 0=4 1=1 2=256 9=1
InnerProduct     /Conv_571                1 1 /Relu_281_output_0 /Sigmoid_140_output_0 0=64 1=1 2=256 9=4
BinaryOp         /Mul_141                 2 1 /Conv_569_output_0_splitncnn_0 /Sigmoid_140_output_0 /Mul_141_output_0 0=2
BinaryOp         /Add_147                 2 1 /Mul_141_output_0 /Add_146_output_0_splitncnn_1 /Add_147_output_0
Split            splitncnn_282            1 2 /Add_147_output_0 /Add_147_output_0_splitncnn_0 /Add_147_output_0_splitncnn_1
Convolution      /Conv_572                1 1 /Add_147_output_0_splitncnn_1 /Relu_282_output_0 0=64 1=3 4=1 5=1 6=36864 9=1
Convolution      /Conv_573                1 1 /Relu_282_output_0 /Conv_573_output_0 0=64 1=3 4=1 5=1 6=36864
Split            splitncnn_283            1 2 /Conv_573_output_0 /Conv_573_output_0_splitncnn_0 /Conv_573_output_0_splitncnn_1
Pooling          /GlobalAveragePool_141   1 1 /Conv_573_output_0_splitncnn_1 /GlobalAveragePool_141_output_0 0=1 4=1
InnerProduct     /Conv_574                1 1 /GlobalAveragePool_141_output_0 /Relu_283_output_0 0=4 1=1 2=256 9=1
InnerProduct     /Conv_575                1 1 /Relu_283_output_0 /Sigmoid_141_output_0 0=64 1=1 2=256 9=4
BinaryOp         /Mul_142                 2 1 /Conv_573_output_0_splitncnn_0 /Sigmoid_141_output_0 /Mul_142_output_0 0=2
…
BinaryOp         /Mul_154                 2 1 /Conv_621_output_0_splitncnn_0 /Sigmoid_153_output_0 /Mul_154_output_0 0=2
BinaryOp         /Add_160                 2 1 /Mul_154_output_0 /Add_159_output_0_splitncnn_0 /Add_160_output_0
Split            splitncnn_308            1 2 /Add_160_output_0 /Add_160_output_0_splitncnn_0 /Add_160_output_0_splitncnn_1
Convolution      /Conv_624                1 1 /Add_160_output_0_splitncnn_1 /Relu_308_output_0 0=64 1=3 4=1 5=1 6=36864 9=1
Convolution      /Conv_625                1 1 /Relu_308_output_0 /Conv_625_output_0 0=64 1=3 4=1 5=1 6=36864
Split            splitncnn_309            1 2 /Conv_625_output_0 /Conv_625_output_0_splitncnn_0 /Conv_625_output_0_splitncnn_1
Pooling          /GlobalAveragePool_154   1 1 /Conv_625_output_0_splitncnn_1 /GlobalAveragePool_154_output_0 0=1 4=1
InnerProduct     /Conv_626                1 1 /GlobalAveragePool_154_output_0 /Relu_309_output_0 0=4 1=1 2=256 9=1
InnerProduct     /Conv_627                1 1 /Relu_309_output_0 /Sigmoid_154_output_0 0=64 1=1 2=256 9=4
BinaryOp         /Mul_155                 2 1 /Conv_625_output_0_splitncnn_0 /Sigmoid_154_output_0 /Mul_155_output_0 0=2
BinaryOp         /Add_161                 2 1 /Mul_155_output_0 /Add_160_output_0_splitncnn_0 /Add_161_output_0
Split            splitncnn_310            1 2 /Add_161_output_0 /Add_161_output_0_splitncnn_0 /Add_161_output_0_splitncnn_1
Convolution      /Conv_628                1 1 /Add_161_output_0_splitncnn_1 /Relu_310_output_0 0=64 1=3 4=1 5=1 6=36864 9=1
Convolution      /Conv_629                1 1 /Relu_310_output_0 /Conv_629_output_0 0=64 1=3 4=1 5=1 6=36864
Split            splitncnn_311            1 2 /Conv_629_output_0 /Conv_629_output_0_splitncnn_0 /Conv_629_output_0_splitncnn_1
Pooling          /GlobalAveragePool_155   1 1 /Conv_629_output_0_splitncnn_1 /GlobalAveragePool_155_output_0 0=1 4=1
InnerProduct     /Conv_630                1 1 /GlobalAveragePool_155_output_0 /Relu_311_output_0 0=4 1=1 2=256 9=1
InnerProduct     /Conv_631                1 1 /Relu_311_output_0 /Sigmoid_155_output_0 0=64 1=1 2=256 9=4
BinaryOp         /Mul_156                 2 1 /Conv_629_output_0_splitncnn_0 /Sigmoid_155_output_0 /Mul_156_output_0 0=2
BinaryOp         /Add_162                 2 1 /Mul_156_output_0 /Add_161_output_0_splitncnn_0 /Add_162_output_0
Split            splitncnn_312            1 2 /Add_162_output_0 /Add_162_output_0_splitncnn_0 /Add_162_output_0_splitncnn_1
Convolution      /Conv_632                1 1 /Add_162_output_0_splitncnn_1 /Relu_312_output_0 0=64 1=3 4=1 5=1 6=36864 9=1
Convolution      /Conv_633                1 1 /Relu_312_output_0 /Conv_633_output_0 0=64 1=3 4=1 5=1 6=36864
Split            splitncnn_313            1 2 /Conv_633_output_0 /Conv_633_output_0_splitncnn_0 /Conv_633_output_0_splitncnn_1
Pooling          /GlobalAveragePool_156   1 1 /Conv_633_output_0_splitncnn_1 /GlobalAveragePool_156_output_0 0=1 4=1
InnerProduct     /Conv_634                1 1 /GlobalAveragePool_156_output_0 /Relu_313_output_0 0=4 1=1 2=256 9=1
InnerProduct     /Conv_635                1 1 /Relu_313_output_0 /Sigmoid_156_output_0 0=64 1=1 2=256 9=4
BinaryOp         /Mul_157                 2 1 /Conv_633_output_0_splitncnn_0 /Sigmoid_156_output_0 /Mul_157_output_0 0=2
BinaryOp         /Add_163                 2 1 /Mul_157_output_0 /Add_162_output_0_splitncnn_0 /Add_163_output_0
Split            splitncnn_314            1 2 /Add_163_output_0 /Add_163_output_0_splitncnn_0 /Add_163_output_0_splitncnn_1
Convolution      /Conv_636                1 1 /Add_163_output_0_splitncnn_1 /Relu_314_output_0 0=64 1=3 4=1 5=1 6=36864 9=1
Convolution      /Conv_637                1 1 /Relu_314_output_0 /Conv_637_output_0 0=64 1=3 4=1 5=1 6=36864
Split            splitncnn_315            1 2 /Conv_637_output_0 /Conv_637_output_0_splitncnn_0 /Conv_637_output_0_splitncnn_1
Pooling          /GlobalAveragePool_157   1 1 /Conv_637_output_0_splitncnn_1 /GlobalAveragePool_157_output_0 0=1 4=1
InnerProduct     /Conv_638                1 1 /GlobalAveragePool_157_output_0 /Relu_315_output_0 0=4 1=1 2=256 9=1
InnerProduct     /Conv_639                1 1 /Relu_315_output_0 /Sigmoid_157_output_0 0=64 1=1 2=256 9=4
BinaryOp         /Mul_158                 2 1 /Conv_637_output_0_splitncnn_0 /Sigmoid_157_output_0 /Mul_158_output_0 0=2
BinaryOp         /Add_164                 2 1 /Mul_158_output_0 /Add_163_output_0_splitncnn_0 /Add_164_output_0
Split            splitncnn_316            1 2 /Add_164_output_0 /Add_164_output_0_splitncnn_0 /Add_164_output_0_splitncnn_1
Convolution      /Conv_640                1 1 /Add_164_output_0_splitncnn_1 /Relu_316_output_0 0=64 1=3 4=1 5=1 6=36864 9=1
Convolution      /Conv_641                1 1 /Relu_316_output_0 /Conv_641_output_0 0=64 1=3 4=1 5=1 6=36864
Split            splitncnn_317            1 2 /Conv_641_output_0 /Conv_641_output_0_splitncnn_0 /Conv_641_output_0_splitncnn_1
Pooling          /GlobalAveragePool_158   1 1 /Conv_641_output_0_splitncnn_1 /GlobalAveragePool_158_output_0 0=1 4=1
InnerProduct     /Conv_642                1 1 /GlobalAveragePool_158_output_0 /Relu_317_output_0 0=4 1=1 2=256 9=1
InnerProduct     /Conv_643                1 1 /Relu_317_output_0 /Sigmoid_158_output_0 0=64 1=1 2=256 9=4
BinaryOp         /Mul_159                 2 1 /Conv_641_output_0_splitncnn_0 /Sigmoid_158_output_0 /Mul_159_output_0 0=2
BinaryOp         /Add_165                 2 1 /Mul_159_output_0 /Add_164_output_0_splitncnn_0 /Add_165_output_0
Split            splitncnn_318            1 2 /Add_165_output_0 /Add_165_output_0_splitncnn_0 /Add_165_output_0_splitncnn_1
Convolution      /Conv_644                1 1 /Add_165_output_0_splitncnn_1 /Relu_318_output_0 0=64 1=3 4=1 5=1 6=36864 9=1
Convolution      /Conv_645                1 1 /Relu_318_output_0 /Conv_645_output_0 0=64 1=3 4=1 5=1 6=36864
Split            splitncnn_319            1 2 /Conv_645_output_0 /Conv_645_output_0_splitncnn_0 /Conv_645_output_0_splitncnn_1
Pooling          /GlobalAveragePool_159   1 1 /Conv_645_output_0_splitncnn_1 /GlobalAveragePool_159_output_0 0=1 4=1
InnerProduct     /Conv_646                1 1 /GlobalAveragePool_159_output_0 /Relu_319_output_0 0=4 1=1 2=256 9=1
InnerProduct     /Conv_647                1 1 /Relu_319_output_0 /Sigmoid_159_output_0 0=64 1=1 2=256 9=4
BinaryOp         /Mul_160                 2 1 /Conv_645_output_0_splitncnn_0 /Sigmoid_159_output_0 /Mul_160_output_0 0=2
BinaryOp         /Add_166                 2 1 /Mul_160_output_0 /Add_165_output_0_splitncnn_0 /Add_166_output_0
Convolution      /Conv_648                1 1 /Add_166_output_0 /Conv_648_output_0 0=64 1=3 4=1 5=1 6=36864
BinaryOp         /Add_167                 2 1 /Conv_648_output_0 /Add_146_output_0_splitncnn_0 /Add_167_output_0
Split            splitncnn_320            1 3 /Add_167_output_0 /Add_167_output_0_splitncnn_0 /Add_167_output_0_splitncnn_1 /Add_167_output_0_splitncnn_2
Convolution      /Conv_649                1 1 /Add_167_output_0_splitncnn_2 /Relu_320_output_0 0=64 1=3 4=1 5=1 6=36864 9=1
Convolution      /Conv_650                1 1 /Relu_320_output_0 /Conv_650_output_0 0=64 1=3 4=1 5=1 6=36864
Split            splitncnn_321            1 2 /Conv_650_output_0 /Conv_650_output_0_splitncnn_0 /Conv_650_output_0_splitncnn_1
Pooling          /GlobalAveragePool_160   1 1 /Conv_650_output_0_splitncnn_1 /GlobalAveragePool_160_output_0 0=1 4=1
InnerProduct     /Conv_651                1 1 /GlobalAveragePool_160_output_0 /Relu_321_output_0 0=4 1=1 2=256 9=1
InnerProduct     /Conv_652                1 1 /Relu_321_output_0 /Sigmoid_160_output_0 0=64 1=1 2=256 9=4
BinaryOp         /Mul_161                 2 1 /Conv_650_output_0_splitncnn_0 /Sigmoid_160_output_0 /Mul_161_output_0 0=2
BinaryOp         /Add_168                 2 1 /Mul_161_output_0 /Add_167_output_0_splitncnn_1 /Add_168_output_0
Split            splitncnn_322            1 2 /Add_168_output_0 /Add_168_output_0_splitncnn_0 /Add_168_output_0_splitncnn_1
Convolution      /Conv_653                1 1 /Add_168_output_0_splitncnn_1 /Relu_322_output_0 0=64 1=3 4=1 5=1 6=36864 9=1
Convolution      /Conv_654                1 1 /Relu_322_output_0 /Conv_654_output_0 0=64 1=3 4=1 5=1 6=36864
Split            splitncnn_323            1 2 /Conv_654_output_0 /Conv_654_output_0_splitncnn_0 /Conv_654_output_0_splitncnn_1
Pooling          /GlobalAveragePool_161   1 1 /Conv_654_output_0_splitncnn_1 /GlobalAveragePool_161_output_0 0=1 4=1
InnerProduct     /Conv_655                1 1 /GlobalAveragePool_161_output_0 /Relu_323_output_0 0=4 1=1 2=256 9=1
InnerProduct     /Conv_656                1 1 /Relu_323_output_0 /Sigmoid_161_output_0 0=64 1=1 2=256 9=4
BinaryOp         /Mul_162                 2 1 /Conv_654_output_0_splitncnn_0 /Sigmoid_161_output_0 /Mul_162_output_0 0=2
BinaryOp         /Add_169                 2 1 /Mul_162_output_0 /Add_168_output_0_splitncnn_0 /Add_169_output_0
Split            splitncnn_324            1 2 /Add_169_output_0 /Add_169_output_0_splitncnn_0 /Add_169_output_0_splitncnn_1
Convolution      /Conv_657                1 1 /Add_169_output_0_splitncnn_1 /Relu_324_output_0 0=64 1=3 4=1 5=1 6=36864 9=1
Convolution      /Conv_658                1 1 /Relu_324_output_0 /Conv_658_output_0 0=64 1=3 4=1 5=1 6=36864
Split            splitncnn_325            1 2 /Conv_658_output_0 /Conv_658_output_0_splitncnn_0 /Conv_658_output_0_splitncnn_1
Pooling          /GlobalAveragePool_162   1 1 /Conv_658_output_0_splitncnn_1 /GlobalAveragePool_162_output_0 0=1 4=1
InnerProduct     /Conv_659                1 1 /GlobalAveragePool_162_output_0 /Relu_325_output_0 0=4 1=1 2=256 9=1
InnerProduct     /Conv_660                1 1 /Relu_325_output_0 /Sigmoid_162_output_0 0=64 1=1 2=256 9=4
BinaryOp         /Mul_163                 2 1 /Conv_658_output_0_splitncnn_0 /Sigmoid_162_output_0 /Mul_163_output_0 0=2
BinaryOp         /Add_170                 2 1 /Mul_163_output_0 /Add_169_output_0_splitncnn_0 /Add_170_output_0
Split            splitncnn_326            1 2 /Add_170_output_0 /Add_170_output_0_splitncnn_0 /Add_170_output_0_splitncnn_1
Convolution      /Conv_661                1 1 /Add_170_output_0_splitncnn_1 /Relu_326_output_0 0=64 1=3 4=1 5=1 6=36864 9=1
Convolution      /Conv_662                1 1 /Relu_326_output_0 /Conv_662_output_0 0=64 1=3 4=1 5=1 6=36864
Split            splitncnn_327            1 2 /Conv_662_output_0 /Conv_662_output_0_splitncnn_0 /Conv_662_output_0_splitncnn_1
Pooling          /GlobalAveragePool_163   1 1 /Conv_662_output_0_splitncnn_1 /GlobalAveragePool_163_output_0 0=1 4=1
InnerProduct     /Conv_663                1 1 /GlobalAveragePool_163_output_0 /Relu_327_output_0 0=4 1=1 2=256 9=1
InnerProduct     /Conv_664                1 1 /Relu_327_output_0 /Sigmoid_163_output_0 0=64 1=1 2=256 9=4
BinaryOp         /Mul_164                 2 1 /Conv_662_output_0_splitncnn_0 /Sigmoid_163_output_0 /Mul_164_output_0 0=2
BinaryOp         /Add_171                 2 1 /Mul_164_output_0 /Add_170_output_0_splitncnn_0 /Add_171_output_0
Split            splitncnn_328            1 2 /Add_171_output_0 /Add_171_output_0_splitncnn_0 /Add_171_output_0_splitncnn_1
Convolution      /Conv_665                1 1 /Add_171_output_0_splitncnn_1 /Relu_328_output_0 0=64 1=3 4=1 5=1 6=36864 9=1
Convolution      /Conv_666                1 1 /Relu_328_output_0 /Conv_666_output_0 0=64 1=3 4=1 5=1 6=36864
Split            splitncnn_329            1 2 /Conv_666_output_0 /Conv_666_output_0_splitncnn_0 /Conv_666_output_0_splitncnn_1
Pooling          /GlobalAveragePool_164   1 1 /Conv_666_output_0_splitncnn_1 /GlobalAveragePool_164_output_0 0=1 4=1
InnerProduct     /Conv_667                1 1 /GlobalAveragePool_164_output_0 /Relu_329_output_0 0=4 1=1 2=256 9=1
InnerProduct     /Conv_668                1 1 /Relu_329_output_0 /Sigmoid_164_output_0 0=64 1=1 2=256 9=4
BinaryOp         /Mul_165                 2 1 /Conv_666_output_0_splitncnn_0 /Sigmoid_164_output_0 /Mul_165_output_0 0=2
BinaryOp         /Add_172                 2 1 /Mul_165_output_0 /Add_171_output_0_splitncnn_0 /Add_172_output_0
Split            splitncnn_330            1 2 /Add_172_output_0 /Add_172_output_0_splitncnn_0 /Add_172_output_0_splitncnn_1
Convolution      /Conv_669                1 1 /Add_172_output_0_splitncnn_1 /Relu_330_output_0 0=64 1=3 4=1 5=1 6=36864 9=1
Convolution      /Conv_670                1 1 /Relu_330_output_0 /Conv_670_output_0 0=64 1=3 4=1 5=1 6=36864
Split            splitncnn_331            1 2 /Conv_670_output_0 /Conv_670_output_0_splitncnn_0 /Conv_670_output_0_splitncnn_1
Pooling          /GlobalAveragePool_165   1 1 /Conv_670_output_0_splitncnn_1 /GlobalAveragePool_165_output_0 0=1 4=1
InnerProduct     /Conv_671                1 1 /GlobalAveragePool_165_output_0 /Relu_331_output_0 0=4 1=1 2=256 9=1
InnerProduct     /Conv_672                1 1 /Relu_331_output_0 /Sigmoid_165_output_0 0=64 1=1 2=256 9=4
BinaryOp         /Mul_166                 2 1 /Conv_670_output_0_splitncnn_0 /Sigmoid_165_output_0 /Mul_166_output_0 0=2
BinaryOp         /Add_173                 2 1 /Mul_166_output_0 /Add_172_output_0_splitncnn_0 /Add_173_output_0
Split            splitncnn_332            1 2 /Add_173_output_0 /Add_173_output_0_splitncnn_0 /Add_173_output_0_splitncnn_1
Convolution      /Conv_673                1 1 /Add_173_output_0_splitncnn_1 /Relu_332_output_0 0=64 1=3 4=1 5=1 6=36864 9=1
Convolution      /Conv_674                1 1 /Relu_332_output_0 /Conv_674_output_0 0=64 1=3 4=1 5=1 6=36864
Split            splitncnn_333            1 2 /Conv_674_output_0 /Conv_674_output_0_splitncnn_0 /Conv_674_output_0_splitncnn_1
Pooling          /GlobalAveragePool_166   1 1 /Conv_674_output_0_splitncnn_1 /GlobalAveragePool_166_output_0 0=1 4=1
InnerProduct     /Conv_675                1 1 /GlobalAveragePool_166_output_0 /Relu_333_output_0 0=4 1=1 2=256 9=1
InnerProduct     /Conv_676                1 1 /Relu_333_output_0 /Sigmoid_166_output_0 0=64 1=1 2=256 9=4
BinaryOp         /Mul_167                 2 1 /Conv_674_output_0_splitncnn_0 /Sigmoid_166_output_0 /Mul_167_output_0 0=2
BinaryOp         /Add_174                 2 1 /Mul_167_output_0 /Add_173_output_0_splitncnn_0 /Add_174_output_0
Split            splitncnn_334            1 2 /Add_174_output_0 /Add_174_output_0_splitncnn_0 /Add_174_output_0_splitncnn_1
Convolution      /Conv_677                1 1 /Add_174_output_0_splitncnn_1 /Relu_334_output_0 0=64 1=3 4=1 5=1 6=36864 9=1
Convolution      /Conv_678                1 1 /Relu_334_output_0 /Conv_678_output_0 0=64 1=3 4=1 5=1 6=36864
Split            splitncnn_335            1 2 /Conv_678_output_0 /Conv_678_output_0_splitncnn_0 /Conv_678_output_0_splitncnn_1
Pooling          /GlobalAveragePool_167   1 1 /Conv_678_output_0_splitncnn_1 /GlobalAveragePool_167_output_0 0=1 4=1
InnerProduct     /Conv_679                1 1 /GlobalAveragePool_167_output_0 /Relu_335_output_0 0=4 1=1 2=256 9=1
InnerProduct     /Conv_680                1 1 /Relu_335_output_0 /Sigmoid_167_output_0 0=64 1=1 2=256 9=4
BinaryOp         /Mul_168                 2 1 /Conv_678_output_0_splitncnn_0 /Sigmoid_167_output_0 /Mul_168_output_0 0=2
BinaryOp         /Add_175                 2 1 /Mul_168_output_0 /Add_174_output_0_splitncnn_0 /Add_175_output_0
Split            splitncnn_336            1 2 /Add_175_output_0 /Add_175_output_0_splitncnn_0 /Add_175_output_0_splitncnn_1
Convolution      /Conv_681                1 1 /Add_175_output_0_splitncnn_1 /Relu_336_output_0 0=64 1=3 4=1 5=1 6=36864 9=1
Convolution      /Conv_682                1 1 /Relu_336_output_0 /Conv_682_output_0 0=64 1=3 4=1 5=1 6=36864
Split            splitncnn_337            1 2 /Conv_682_output_0 /Conv_682_output_0_splitncnn_0 /Conv_682_output_0_splitncnn_1
Pooling          /GlobalAveragePool_168   1 1 /Conv_682_output_0_splitncnn_1 /GlobalAveragePool_168_output_0 0=1 4=1
InnerProduct     /Conv_683                1 1 /GlobalAveragePool_168_output_0 /Relu_337_output_0 0=4 1=1 2=256 9=1
InnerProduct     /Conv_684                1 1 /Relu_337_output_0 /Sigmoid_168_output_0 0=64 1=1 2=256 9=4
BinaryOp         /Mul_169                 2 1 /Conv_682_output_0_splitncnn_0 /Sigmoid_168_output_0 /Mul_169_output_0 0=2
BinaryOp         /Add_176                 2 1 /Mul_169_output_0 /Add_175_output_0_splitncnn_0 /Add_176_output_0
Split            splitncnn_338            1 2 /Add_176_output_0 /Add_176_output_0_splitncnn_0 /Add_176_output_0_splitncnn_1
Convolution      /Conv_685                1 1 /Add_176_output_0_splitncnn_1 /Relu_338_output_0 0=64 1=3 4=1 5=1 6=36864 9=1
Convolution      /Conv_686                1 1 /Relu_338_output_0 /Conv_686_output_0 0=64 1=3 4=1 5=1 6=36864
Split            splitncnn_339            1 2 /Conv_686_output_0 /Conv_686_output_0_splitncnn_0 /Conv_686_output_0_splitncnn_1
Pooling          /GlobalAveragePool_169   1 1 /Conv_686_output_0_splitncnn_1 /GlobalAveragePool_169_output_0 0=1 4=1
InnerProduct     /Conv_687                1 1 /GlobalAveragePool_169_output_0 /Relu_339_output_0 0=4 1=1 2=256 9=1
InnerProduct     /Conv_688                1 1 /Relu_339_output_0 /Sigmoid_169_output_0 0=64 1=1 2=256 9=4
BinaryOp         /Mul_170                 2 1 /Conv_686_output_0_splitncnn_0 /Sigmoid_169_output_0 /Mul_170_output_0 0=2
BinaryOp         /Add_177                 2 1 /Mul_170_output_0 /Add_176_output_0_splitncnn_0 /Add_177_output_0
Split            splitncnn_340            1 2 /Add_177_output_0 /Add_177_output_0_splitncnn_0 /Add_177_output_0_splitncnn_1
Convolution      /Conv_689                1 1 /Add_177_output_0_splitncnn_1 /Relu_340_output_0 0=64 1=3 4=1 5=1 6=36864 9=1
Convolution      /Conv_690                1 1 /Relu_340_output_0 /Conv_690_output_0 0=64 1=3 4=1 5=1 6=36864
Split            splitncnn_341            1 2 /Conv_690_output_0 /Conv_690_output_0_splitncnn_0 /Conv_690_output_0_splitncnn_1
Pooling          /GlobalAveragePool_170   1 1 /Conv_690_output_0_splitncnn_1 /GlobalAveragePool_170_output_0 0=1 4=1
InnerProduct     /Conv_691                1 1 /GlobalAveragePool_170_output_0 /Relu_341_output_0 0=4 1=1 2=256 9=1
InnerProduct     /Conv_692                1 1 /Relu_341_output_0 /Sigmoid_170_output_0 0=64 1=1 2=256 9=4
BinaryOp         /Mul_171                 2 1 /Conv_690_output_0_splitncnn_0 /Sigmoid_170_output_0 /Mul_171_output_0 0=2
BinaryOp         /Add_178                 2 1 /Mul_171_output_0 /Add_177_output_0_splitncnn_0 /Add_178_output_0
Split            splitncnn_342            1 2 /Add_178_output_0 /Add_178_output_0_splitncnn_0 /Add_178_output_0_splitncnn_1
Convolution      /Conv_693                1 1 /Add_178_output_0_splitncnn_1 /Relu_342_output_0 0=64 1=3 4=1 5=1 6=36864 9=1
Convolution      /Conv_694                1 1 /Relu_342_output_0 /Conv_694_output_0 0=64 1=3 4=1 5=1 6=36864
Split            splitncnn_343            1 2 /Conv_694_output_0 /Conv_694_output_0_splitncnn_0 /Conv_694_output_0_splitncnn_1
Pooling          /GlobalAveragePool_171   1 1 /Conv_694_output_0_splitncnn_1 /GlobalAveragePool_171_output_0 0=1 4=1
InnerProduct     /Conv_695                1 1 /GlobalAveragePool_171_output_0 /Relu_343_output_0 0=4 1=1 2=256 9=1
InnerProduct     /Conv_696                1 1 /Relu_343_output_0 /Sigmoid_171_output_0 0=64 1=1 2=256 9=4
BinaryOp         /Mul_172                 2 1 /Conv_694_output_0_splitncnn_0 /Sigmoid_171_output_0 /Mul_172_output_0 0=2
BinaryOp         /Add_179                 2 1 /Mul_172_output_0 /Add_178_output_0_splitncnn_0 /Add_179_output_0
Split            splitncnn_344            1 2 /Add_179_output_0 /Add_179_output_0_splitncnn_0 /Add_179_output_0_splitncnn_1
Convolution      /Conv_697                1 1 /Add_179_output_0_splitncnn_1 /Relu_344_output_0 0=64 1=3 4=1 5=1 6=36864 9=1
Convolution      /Conv_698                1 1 /Relu_344_output_0 /Conv_698_output_0 0=64 1=3 4=1 5=1 6=36864
Split            splitncnn_345            1 2 /Conv_698_output_0 /Conv_698_output_0_splitncnn_0 /Conv_698_output_0_splitncnn_1
Pooling          /GlobalAveragePool_172   1 1 /Conv_698_output_0_splitncnn_1 /GlobalAveragePool_172_output_0 0=1 4=1
InnerProduct     /Conv_699                1 1 /GlobalAveragePool_172_output_0 /Relu_345_output_0 0=4 1=1 2=256 9=1
InnerProduct     /Conv_700                1 1 /Relu_345_output_0 /Sigmoid_172_output_0 0=64 1=1 2=256 9=4
BinaryOp         /Mul_173                 2 1 /Conv_698_output_0_splitncnn_0 /Sigmoid_172_output_0 /Mul_173_output_0 0=2
BinaryOp         /Add_180                 2 1 /Mul_173_output_0 /Add_179_output_0_splitncnn_0 /Add_180_output_0
Split            splitncnn_346            1 2 /Add_180_output_0 /Add_180_output_0_splitncnn_0 /Add_180_output_0_splitncnn_1
Convolution      /Conv_701                1 1 /Add_180_output_0_splitncnn_1 /Relu_346_output_0 0=64 1=3 4=1 5=1 6=36864 9=1
Convolution      /Conv_702                1 1 /Relu_346_output_0 /Conv_702_output_0 0=64 1=3 4=1 5=1 6=36864
Split            splitncnn_347            1 2 /Conv_702_output_0 /Conv_702_output_0_splitncnn_0 /Conv_702_output_0_splitncnn_1
Pooling          /GlobalAveragePool_173   1 1 /Conv_702_output_0_splitncnn_1 /GlobalAveragePool_173_output_0 0=1 4=1
InnerProduct     /Conv_703                1 1 /GlobalAveragePool_173_output_0 /Relu_347_output_0 0=4 1=1 2=256 9=1
InnerProduct     /Conv_704                1 1 /Relu_347_output_0 /Sigmoid_173_output_0 0=64 1=1 2=256 9=4
BinaryOp         /Mul_174                 2 1 /Conv_702_output_0_splitncnn_0 /Sigmoid_173_output_0 /Mul_174_output_0 0=2
BinaryOp         /Add_181                 2 1 /Mul_174_output_0 /Add_180_output_0_splitncnn_0 /Add_181_output_0
Split            splitncnn_348            1 2 /Add_181_output_0 /Add_181_output_0_splitncnn_0 /Add_181_output_0_splitncnn_1
Convolution      /Conv_705                1 1 /Add_181_output_0_splitncnn_1 /Relu_348_output_0 0=64 1=3 4=1 5=1 6=36864 9=1
Convolution      /Conv_706                1 1 /Relu_348_output_0 /Conv_706_output_0 0=64 1=3 4=1 5=1 6=36864
Split            splitncnn_349            1 2 /Conv_706_output_0 /Conv_706_output_0_splitncnn_0 /Conv_706_output_0_splitncnn_1
Pooling          /GlobalAveragePool_174   1 1 /Conv_706_output_0_splitncnn_1 /GlobalAveragePool_174_output_0 0=1 4=1
InnerProduct     /Conv_707                1 1 /GlobalAveragePool_174_output_0 /Relu_349_output_0 0=4 1=1 2=256 9=1
InnerProduct     /Conv_708                1 1 /Relu_349_output_0 /Sigmoid_174_output_0 0=64 1=1 2=256 9=4
BinaryOp         /Mul_175                 2 1 /Conv_706_output_0_splitncnn_0 /Sigmoid_174_output_0 /Mul_175_output_0 0=2
BinaryOp         /Add_182                 2 1 /Mul_175_output_0 /Add_181_output_0_splitncnn_0 /Add_182_output_0
Split            splitncnn_350            1 2 /Add_182_output_0 /Add_182_output_0_splitncnn_0 /Add_182_output_0_splitncnn_1
Convolution      /Conv_709                1 1 /Add_182_output_0_splitncnn_1 /Relu_350_output_0 0=64 1=3 4=1 5=1 6=36864 9=1
Convolution      /Conv_710                1 1 /Relu_350_output_0 /Conv_710_output_0 0=64 1=3 4=1 5=1 6=36864
Split            splitncnn_351            1 2 /Conv_710_output_0 /Conv_710_output_0_splitncnn_0 /Conv_710_output_0_splitncnn_1
Pooling          /GlobalAveragePool_175   1 1 /Conv_710_output_0_splitncnn_1 /GlobalAveragePool_175_output_0 0=1 4=1
InnerProduct     /Conv_711                1 1 /GlobalAveragePool_175_output_0 /Relu_351_output_0 0=4 1=1 2=256 9=1
InnerProduct     /Conv_712                1 1 /Relu_351_output_0 /Sigmoid_175_output_0 0=64 1=1 2=256 9=4
BinaryOp         /Mul_176                 2 1 /Conv_710_output_0_splitncnn_0 /Sigmoid_175_output_0 /Mul_176_output_0 0=2
BinaryOp         /Add_183                 2 1 /Mul_176_output_0 /Add_182_output_0_splitncnn_0 /Add_183_output_0
Split            splitncnn_352            1 2 /Add_183_output_0 /Add_183_output_0_splitncnn_0 /Add_183_output_0_splitncnn_1
Convolution      /Conv_713                1 1 /Add_183_output_0_splitncnn_1 /Relu_352_output_0 0=64 1=3 4=1 5=1 6=36864 9=1
Convolution      /Conv_714                1 1 /Relu_352_output_0 /Conv_714_output_0 0=64 1=3 4=1 5=1 6=36864
Split            splitncnn_353            1 2 /Conv_714_output_0 /Conv_714_output_0_splitncnn_0 /Conv_714_output_0_splitncnn_1
Pooling          /GlobalAveragePool_176   1 1 /Conv_714_output_0_splitncnn_1 /GlobalAveragePool_176_output_0 0=1 4=1
InnerProduct     /Conv_715                1 1 /GlobalAveragePool_176_output_0 /Relu_353_output_0 0=4 1=1 2=256 9=1
InnerProduct     /Conv_716                1 1 /Relu_353_output_0 /Sigmoid_176_output_0 0=64 1=1 2=256 9=4
BinaryOp         /Mul_177                 2 1 /Conv_714_output_0_splitncnn_0 /Sigmoid_176_output_0 /Mul_177_output_0 0=2
BinaryOp         /Add_184                 2 1 /Mul_177_output_0 /Add_183_output_0_splitncnn_0 /Add_184_output_0
Split            splitncnn_354            1 2 /Add_184_output_0 /Add_184_output_0_splitncnn_0 /Add_184_output_0_splitncnn_1
Convolution      /Conv_717                1 1 /Add_184_output_0_splitncnn_1 /Relu_354_output_0 0=64 1=3 4=1 5=1 6=36864 9=1
Convolution      /Conv_718                1 1 /Relu_354_output_0 /Conv_718_output_0 0=64 1=3 4=1 5=1 6=36864
Split            splitncnn_355            1 2 /Conv_718_output_0 /Conv_718_output_0_splitncnn_0 /Conv_718_output_0_splitncnn_1
Pooling          /GlobalAveragePool_177   1 1 /Conv_718_output_0_splitncnn_1 /GlobalAveragePool_177_output_0 0=1 4=1
InnerProduct     /Conv_719                1 1 /GlobalAveragePool_177_output_0 /Relu_355_output_0 0=4 1=1 2=256 9=1
InnerProduct     /Conv_720                1 1 /Relu_355_output_0 /Sigmoid_177_output_0 0=64 1=1 2=256 9=4
BinaryOp         /Mul_178                 2 1 /Conv_718_output_0_splitncnn_0 /Sigmoid_177_output_0 /Mul_178_output_0 0=2
BinaryOp         /Add_185                 2 1 /Mul_178_output_0 /Add_184_output_0_splitncnn_0 /Add_185_output_0
Split            splitncnn_356            1 2 /Add_185_output_0 /Add_185_output_0_splitncnn_0 /Add_185_output_0_splitncnn_1
Convolution      /Conv_721                1 1 /Add_185_output_0_splitncnn_1 /Relu_356_output_0 0=64 1=3 4=1 5=1 6=36864 9=1
Convolution      /Conv_722                1 1 /Relu_356_output_0 /Conv_722_output_0 0=64 1=3 4=1 5=1 6=36864
Split            splitncnn_357            1 2 /Conv_722_output_0 /Conv_722_output_0_splitncnn_0 /Conv_722_output_0_splitncnn_1
Pooling          /GlobalAveragePool_178   1 1 /Conv_722_output_0_splitncnn_1 /GlobalAveragePool_178_output_0 0=1 4=1
InnerProduct     /Conv_723                1 1 /GlobalAveragePool_178_output_0 /Relu_357_output_0 0=4 1=1 2=256 9=1
InnerProduct     /Conv_724                1 1 /Relu_357_output_0 /Sigmoid_178_output_0 0=64 1=1 2=256 9=4
BinaryOp         /Mul_179                 2 1 /Conv_722_output_0_splitncnn_0 /Sigmoid_178_output_0 /Mul_179_output_0 0=2
BinaryOp         /Add_186                 2 1 /Mul_179_output_0 /Add_185_output_0_splitncnn_0 /Add_186_output_0
Split            splitncnn_358            1 2 /Add_186_output_0 /Add_186_output_0_splitncnn_0 /Add_186_output_0_splitncnn_1
Convolution      /Conv_725                1 1 /Add_186_output_0_splitncnn_1 /Relu_358_output_0 0=64 1=3 4=1 5=1 6=36864 9=1
Convolution      /Conv_726                1 1 /Relu_358_output_0 /Conv_726_output_0 0=64 1=3 4=1 5=1 6=36864
Split            splitncnn_359            1 2 /Conv_726_output_0 /Conv_726_output_0_splitncnn_0 /Conv_726_output_0_splitncnn_1
Pooling          /GlobalAveragePool_179   1 1 /Conv_726_output_0_splitncnn_1 /GlobalAveragePool_179_output_0 0=1 4=1
InnerProduct     /Conv_727                1 1 /GlobalAveragePool_179_output_0 /Relu_359_output_0 0=4 1=1 2=256 9=1
InnerProduct     /Conv_728                1 1 /Relu_359_output_0 /Sigmoid_179_output_0 0=64 1=1 2=256 9=4
BinaryOp         /Mul_180                 2 1 /Conv_726_output_0_splitncnn_0 /Sigmoid_179_output_0 /Mul_180_output_0 0=2
BinaryOp         /Add_187                 2 1 /Mul_180_output_0 /Add_186_output_0_splitncnn_0 /Add_187_output_0
Convolution      /Conv_729                1 1 /Add_187_output_0 /Conv_729_output_0 0=64 1=3 4=1 5=1 6=36864
BinaryOp         /Add_188                 2 1 /Conv_729_output_0 /Add_167_output_0_splitncnn_0 /Add_188_output_0
Split            splitncnn_360            1 3 /Add_188_output_0 /Add_188_output_0_splitncnn_0 /Add_188_output_0_splitncnn_1 /Add_188_output_0_splitncnn_2
Convolution      /Conv_730                1 1 /Add_188_output_0_splitncnn_2 /Relu_360_output_0 0=64 1=3 4=1 5=1 6=36864 9=1
Convolution      /Conv_731                1 1 /Relu_360_output_0 /Conv_731_output_0 0=64 1=3 4=1 5=1 6=36864
Split            splitncnn_361            1 2 /Conv_731_output_0 /Conv_731_output_0_splitncnn_0 /Conv_731_output_0_splitncnn_1
Pooling          /GlobalAveragePool_180   1 1 /Conv_731_output_0_splitncnn_1 /GlobalAveragePool_180_output_0 0=1 4=1
InnerProduct     /Conv_732                1 1 /GlobalAveragePool_180_output_0 /Relu_361_output_0 0=4 1=1 2=256 9=1
InnerProduct     /Conv_733                1 1 /Relu_361_output_0 /Sigmoid_180_output_0 0=64 1=1 2=256 9=4
BinaryOp         /Mul_181                 2 1 /Conv_731_output_0_splitncnn_0 /Sigmoid_180_output_0 /Mul_181_output_0 0=2
BinaryOp         /Add_189                 2 1 /Mul_181_output_0 /Add_188_output_0_splitncnn_1 /Add_189_output_0
Split            splitncnn_362            1 2 /Add_189_output_0 /Add_189_output_0_splitncnn_0 /Add_189_output_0_splitncnn_1
Convolution      /Conv_734                1 1 /Add_189_output_0_splitncnn_1 /Relu_362_output_0 0=64 1=3 4=1 5=1 6=36864 9=1
Convolution      /Conv_735                1 1 /Relu_362_output_0 /Conv_735_output_0 0=64 1=3 4=1 5=1 6=36864
Split            splitncnn_363            1 2 /Conv_735_output_0 /Conv_735_output_0_splitncnn_0 /Conv_735_output_0_splitncnn_1
Pooling          /GlobalAveragePool_181   1 1 /Conv_735_output_0_splitncnn_1 /GlobalAveragePool_181_output_0 0=1 4=1
InnerProduct     /Conv_736                1 1 /GlobalAveragePool_181_output_0 /Relu_363_output_0 0=4 1=1 2=256 9=1
InnerProduct     /Conv_737                1 1 /Relu_363_output_0 /Sigmoid_181_output_0 0=64 1=1 2=256 9=4
BinaryOp         /Mul_182                 2 1 /Conv_735_output_0_splitncnn_0 /Sigmoid_181_output_0 /Mul_182_output_0 0=2
BinaryOp         /Add_190                 2 1 /Mul_182_output_0 /Add_189_output_0_splitncnn_0 /Add_190_output_0
Split            splitncnn_364            1 2 /Add_190_output_0 /Add_190_output_0_splitncnn_0 /Add_190_output_0_splitncnn_1
Convolution      /Conv_738                1 1 /Add_190_output_0_splitncnn_1 /Relu_364_output_0 0=64 1=3 4=1 5=1 6=36864 9=1
Convolution      /Conv_739                1 1 /Relu_364_output_0 /Conv_739_output_0 0=64 1=3 4=1 5=1 6=36864
Split            splitncnn_365            1 2 /Conv_739_output_0 /Conv_739_output_0_splitncnn_0 /Conv_739_output_0_splitncnn_1
Pooling          /GlobalAveragePool_182   1 1 /Conv_739_output_0_splitncnn_1 /GlobalAveragePool_182_output_0 0=1 4=1
InnerProduct     /Conv_740                1 1 /GlobalAveragePool_182_output_0 /Relu_365_output_0 0=4 1=1 2=256 9=1
InnerProduct     /Conv_741                1 1 /Relu_365_output_0 /Sigmoid_182_output_0 0=64 1=1 2=256 9=4
BinaryOp         /Mul_183                 2 1 /Conv_739_output_0_splitncnn_0 /Sigmoid_182_output_0 /Mul_183_output_0 0=2
BinaryOp         /Add_191                 2 1 /Mul_183_output_0 /Add_190_output_0_splitncnn_0 /Add_191_output_0
Split            splitncnn_366            1 2 /Add_191_output_0 /Add_191_output_0_splitncnn_0 /Add_191_output_0_splitncnn_1
Convolution      /Conv_742                1 1 /Add_191_output_0_splitncnn_1 /Relu_366_output_0 0=64 1=3 4=1 5=1 6=36864 9=1
Convolution      /Conv_743                1 1 /Relu_366_output_0 /Conv_743_output_0 0=64 1=3 4=1 5=1 6=36864
Split            splitncnn_367            1 2 /Conv_743_output_0 /Conv_743_output_0_splitncnn_0 /Conv_743_output_0_splitncnn_1
Pooling          /GlobalAveragePool_183   1 1 /Conv_743_output_0_splitncnn_1 /GlobalAveragePool_183_output_0 0=1 4=1
InnerProduct     /Conv_744                1 1 /GlobalAveragePool_183_output_0 /Relu_367_output_0 0=4 1=1 2=256 9=1
InnerProduct     /Conv_745                1 1 /Relu_367_output_0 /Sigmoid_183_output_0 0=64 1=1 2=256 9=4
BinaryOp         /Mul_184                 2 1 /Conv_743_output_0_splitncnn_0 /Sigmoid_183_output_0 /Mul_184_output_0 0=2
BinaryOp         /Add_192                 2 1 /Mul_184_output_0 /Add_191_output_0_splitncnn_0 /Add_192_output_0
Split            splitncnn_368            1 2 /Add_192_output_0 /Add_192_output_0_splitncnn_0 /Add_192_output_0_splitncnn_1
Convolution      /Conv_746                1 1 /Add_192_output_0_splitncnn_1 /Relu_368_output_0 0=64 1=3 4=1 5=1 6=36864 9=1
Convolution      /Conv_747                1 1 /Relu_368_output_0 /Conv_747_output_0 0=64 1=3 4=1 5=1 6=36864
Split            splitncnn_369            1 2 /Conv_747_output_0 /Conv_747_output_0_splitncnn_0 /Conv_747_output_0_splitncnn_1
Pooling          /GlobalAveragePool_184   1 1 /Conv_747_output_0_splitncnn_1 /GlobalAveragePool_184_output_0 0=1 4=1
InnerProduct     /Conv_748                1 1 /GlobalAveragePool_184_output_0 /Relu_369_output_0 0=4 1=1 2=256 9=1
InnerProduct     /Conv_749                1 1 /Relu_369_output_0 /Sigmoid_184_output_0 0=64 1=1 2=256 9=4
BinaryOp         /Mul_185                 2 1 /Conv_747_output_0_splitncnn_0 /Sigmoid_184_output_0 /Mul_185_output_0 0=2
BinaryOp         /Add_193                 2 1 /Mul_185_output_0 /Add_192_output_0_splitncnn_0 /Add_193_output_0
Split            splitncnn_370            1 2 /Add_193_output_0 /Add_193_output_0_splitncnn_0 /Add_193_output_0_splitncnn_1
Convolution      /Conv_750                1 1 /Add_193_output_0_splitncnn_1 /Relu_370_output_0 0=64 1=3 4=1 5=1 6=36864 9=1
Convolution      /Conv_751                1 1 /Relu_370_output_0 /Conv_751_output_0 0=64 1=3 4=1 5=1 6=36864
Split            splitncnn_371            1 2 /Conv_751_output_0 /Conv_751_output_0_splitncnn_0 /Conv_751_output_0_splitncnn_1
Pooling          /GlobalAveragePool_185   1 1 /Conv_751_output_0_splitncnn_1 /GlobalAveragePool_185_output_0 0=1 4=1
InnerProduct     /Conv_752                1 1 /GlobalAveragePool_185_output_0 /Relu_371_output_0 0=4 1=1 2=256 9=1
InnerProduct     /Conv_753                1 1 /Relu_371_output_0 /Sigmoid_185_output_0 0=64 1=1 2=256 9=4
BinaryOp         /Mul_186                 2 1 /Conv_751_output_0_splitncnn_0 /Sigmoid_185_output_0 /Mul_186_output_0 0=2
BinaryOp         /Add_194                 2 1 /Mul_186_output_0 /Add_193_output_0_splitncnn_0 /Add_194_output_0
Split            splitncnn_372            1 2 /Add_194_output_0 /Add_194_output_0_splitncnn_0 /Add_194_output_0_splitncnn_1
Convolution      /Conv_754                1 1 /Add_194_output_0_splitncnn_1 /Relu_372_output_0 0=64 1=3 4=1 5=1 6=36864 9=1
Convolution      /Conv_755                1 1 /Relu_372_output_0 /Conv_755_output_0 0=64 1=3 4=1 5=1 6=36864
Split            splitncnn_373            1 2 /Conv_755_output_0 /Conv_755_output_0_splitncnn_0 /Conv_755_output_0_splitncnn_1
Pooling          /GlobalAveragePool_186   1 1 /Conv_755_output_0_splitncnn_1 /GlobalAveragePool_186_output_0 0=1 4=1
InnerProduct     /Conv_756                1 1 /GlobalAveragePool_186_output_0 /Relu_373_output_0 0=4 1=1 2=256 9=1
InnerProduct     /Conv_757                1 1 /Relu_373_output_0 /Sigmoid_186_output_0 0=64 1=1 2=256 9=4
BinaryOp         /Mul_187                 2 1 /Conv_755_output_0_splitncnn_0 /Sigmoid_186_output_0 /Mul_187_output_0 0=2
BinaryOp         /Add_195                 2 1 /Mul_187_output_0 /Add_194_output_0_splitncnn_0 /Add_195_output_0
Split            splitncnn_374            1 2 /Add_195_output_0 /Add_195_output_0_splitncnn_0 /Add_195_output_0_splitncnn_1
Convolution      /Conv_758                1 1 /Add_195_output_0_splitncnn_1 /Relu_374_output_0 0=64 1=3 4=1 5=1 6=36864 9=1
Convolution      /Conv_759                1 1 /Relu_374_output_0 /Conv_759_output_0 0=64 1=3 4=1 5=1 6=36864
Split            splitncnn_375            1 2 /Conv_759_output_0 /Conv_759_output_0_splitncnn_0 /Conv_759_output_0_splitncnn_1
Pooling          /GlobalAveragePool_187   1 1 /Conv_759_output_0_splitncnn_1 /GlobalAveragePool_187_output_0 0=1 4=1
InnerProduct     /Conv_760                1 1 /GlobalAveragePool_187_output_0 /Relu_375_output_0 0=4 1=1 2=256 9=1
InnerProduct     /Conv_761                1 1 /Relu_375_output_0 /Sigmoid_187_output_0 0=64 1=1 2=256 9=4
BinaryOp         /Mul_188                 2 1 /Conv_759_output_0_splitncnn_0 /Sigmoid_187_output_0 /Mul_188_output_0 0=2
BinaryOp         /Add_196                 2 1 /Mul_188_output_0 /Add_195_output_0_splitncnn_0 /Add_196_output_0
Split            splitncnn_376            1 2 /Add_196_output_0 /Add_196_output_0_splitncnn_0 /Add_196_output_0_splitncnn_1
Convolution      /Conv_762                1 1 /Add_196_output_0_splitncnn_1 /Relu_376_output_0 0=64 1=3 4=1 5=1 6=36864 9=1
Convolution      /Conv_763                1 1 /Relu_376_output_0 /Conv_763_output_0 0=64 1=3 4=1 5=1 6=36864
Split            splitncnn_377            1 2 /Conv_763_output_0 /Conv_763_output_0_splitncnn_0 /Conv_763_output_0_splitncnn_1
Pooling          /GlobalAveragePool_188   1 1 /Conv_763_output_0_splitncnn_1 /GlobalAveragePool_188_output_0 0=1 4=1
InnerProduct     /Conv_764                1 1 /GlobalAveragePool_188_output_0 /Relu_377_output_0 0=4 1=1 2=256 9=1
InnerProduct     /Conv_765                1 1 /Relu_377_output_0 /Sigmoid_188_output_0 0=64 1=1 2=256 9=4
BinaryOp         /Mul_189                 2 1 /Conv_763_output_0_splitncnn_0 /Sigmoid_188_output_0 /Mul_189_output_0 0=2
BinaryOp         /Add_197                 2 1 /Mul_189_output_0 /Add_196_output_0_splitncnn_0 /Add_197_output_0
Split            splitncnn_378            1 2 /Add_197_output_0 /Add_197_output_0_splitncnn_0 /Add_197_output_0_splitncnn_1
Convolution      /Conv_766                1 1 /Add_197_output_0_splitncnn_1 /Relu_378_output_0 0=64 1=3 4=1 5=1 6=36864 9=1
Convolution      /Conv_767                1 1 /Relu_378_output_0 /Conv_767_output_0 0=64 1=3 4=1 5=1 6=36864
Split            splitncnn_379            1 2 /Conv_767_output_0 /Conv_767_output_0_splitncnn_0 /Conv_767_output_0_splitncnn_1
Pooling          /GlobalAveragePool_189   1 1 /Conv_767_output_0_splitncnn_1 /GlobalAveragePool_189_output_0 0=1 4=1
InnerProduct     /Conv_768                1 1 /GlobalAveragePool_189_output_0 /Relu_379_output_0 0=4 1=1 2=256 9=1
InnerProduct     /Conv_769                1 1 /Relu_379_output_0 /Sigmoid_189_output_0 0=64 1=1 2=256 9=4
BinaryOp         /Mul_190                 2 1 /Conv_767_output_0_splitncnn_0 /Sigmoid_189_output_0 /Mul_190_output_0 0=2
BinaryOp         /Add_198                 2 1 /Mul_190_output_0 /Add_197_output_0_splitncnn_0 /Add_198_output_0
Split            splitncnn_380            1 2 /Add_198_output_0 /Add_198_output_0_splitncnn_0 /Add_198_output_0_splitncnn_1
Convolution      /Conv_770                1 1 /Add_198_output_0_splitncnn_1 /Relu_380_output_0 0=64 1=3 4=1 5=1 6=36864 9=1
Convolution      /Conv_771                1 1 /Relu_380_output_0 /Conv_771_output_0 0=64 1=3 4=1 5=1 6=36864
Split            splitncnn_381            1 2 /Conv_771_output_0 /Conv_771_output_0_splitncnn_0 /Conv_771_output_0_splitncnn_1
Pooling          /GlobalAveragePool_190   1 1 /Conv_771_output_0_splitncnn_1 /GlobalAveragePool_190_output_0 0=1 4=1
InnerProduct     /Conv_772                1 1 /GlobalAveragePool_190_output_0 /Relu_381_output_0 0=4 1=1 2=256 9=1
InnerProduct     /Conv_773                1 1 /Relu_381_output_0 /Sigmoid_190_output_0 0=64 1=1 2=256 9=4
BinaryOp         /Mul_191                 2 1 /Conv_771_output_0_splitncnn_0 /Sigmoid_190_output_0 /Mul_191_output_0 0=2
BinaryOp         /Add_199                 2 1 /Mul_191_output_0 /Add_198_output_0_splitncnn_0 /Add_199_output_0
Split            splitncnn_382            1 2 /Add_199_output_0 /Add_199_output_0_splitncnn_0 /Add_199_output_0_splitncnn_1
Convolution      /Conv_774                1 1 /Add_199_output_0_splitncnn_1 /Relu_382_output_0 0=64 1=3 4=1 5=1 6=36864 9=1
Convolution      /Conv_775                1 1 /Relu_382_output_0 /Conv_775_output_0 0=64 1=3 4=1 5=1 6=36864
Split            splitncnn_383            1 2 /Conv_775_output_0 /Conv_775_output_0_splitncnn_0 /Conv_775_output_0_splitncnn_1
Pooling          /GlobalAveragePool_191   1 1 /Conv_775_output_0_splitncnn_1 /GlobalAveragePool_191_output_0 0=1 4=1
InnerProduct     /Conv_776                1 1 /GlobalAveragePool_191_output_0 /Relu_383_output_0 0=4 1=1 2=256 9=1
InnerProduct     /Conv_777                1 1 /Relu_383_output_0 /Sigmoid_191_output_0 0=64 1=1 2=256 9=4
BinaryOp         /Mul_192                 2 1 /Conv_775_output_0_splitncnn_0 /Sigmoid_191_output_0 /Mul_192_output_0 0=2
BinaryOp         /Add_200                 2 1 /Mul_192_output_0 /Add_199_output_0_splitncnn_0 /Add_200_output_0
Split            splitncnn_384            1 2 /Add_200_output_0 /Add_200_output_0_splitncnn_0 /Add_200_output_0_splitncnn_1
Convolution      /Conv_778                1 1 /Add_200_output_0_splitncnn_1 /Relu_384_output_0 0=64 1=3 4=1 5=1 6=36864 9=1
Convolution      /Conv_779                1 1 /Relu_384_output_0 /Conv_779_output_0 0=64 1=3 4=1 5=1 6=36864
Split            splitncnn_385            1 2 /Conv_779_output_0 /Conv_779_output_0_splitncnn_0 /Conv_779_output_0_splitncnn_1
Pooling          /GlobalAveragePool_192   1 1 /Conv_779_output_0_splitncnn_1 /GlobalAveragePool_192_output_0 0=1 4=1
InnerProduct     /Conv_780                1 1 /GlobalAveragePool_192_output_0 /Relu_385_output_0 0=4 1=1 2=256 9=1
InnerProduct     /Conv_781                1 1 /Relu_385_output_0 /Sigmoid_192_output_0 0=64 1=1 2=256 9=4
BinaryOp         /Mul_193                 2 1 /Conv_779_output_0_splitncnn_0 /Sigmoid_192_output_0 /Mul_193_output_0 0=2
BinaryOp         /Add_201                 2 1 /Mul_193_output_0 /Add_200_output_0_splitncnn_0 /Add_201_output_0
Split            splitncnn_386            1 2 /Add_201_output_0 /Add_201_output_0_splitncnn_0 /Add_201_output_0_splitncnn_1
Convolution      /Conv_782                1 1 /Add_201_output_0_splitncnn_1 /Relu_386_output_0 0=64 1=3 4=1 5=1 6=36864 9=1
Convolution      /Conv_783                1 1 /Relu_386_output_0 /Conv_783_output_0 0=64 1=3 4=1 5=1 6=36864
Split            splitncnn_387            1 2 /Conv_783_output_0 /Conv_783_output_0_splitncnn_0 /Conv_783_output_0_splitncnn_1
Pooling          /GlobalAveragePool_193   1 1 /Conv_783_output_0_splitncnn_1 /GlobalAveragePool_193_output_0 0=1 4=1
InnerProduct     /Conv_784                1 1 /GlobalAveragePool_193_output_0 /Relu_387_output_0 0=4 1=1 2=256 9=1
InnerProduct     /Conv_785                1 1 /Relu_387_output_0 /Sigmoid_193_output_0 0=64 1=1 2=256 9=4
BinaryOp         /Mul_194                 2 1 /Conv_783_output_0_splitncnn_0 /Sigmoid_193_output_0 /Mul_194_output_0 0=2
BinaryOp         /Add_202                 2 1 /Mul_194_output_0 /Add_201_output_0_splitncnn_0 /Add_202_output_0
Split            splitncnn_388            1 2 /Add_202_output_0 /Add_202_output_0_splitncnn_0 /Add_202_output_0_splitncnn_1
Convolution      /Conv_786                1 1 /Add_202_output_0_splitncnn_1 /Relu_388_output_0 0=64 1=3 4=1 5=1 6=36864 9=1
Convolution      /Conv_787                1 1 /Relu_388_output_0 /Conv_787_output_0 0=64 1=3 4=1 5=1 6=36864
Split            splitncnn_389            1 2 /Conv_787_output_0 /Conv_787_output_0_splitncnn_0 /Conv_787_output_0_splitncnn_1
Pooling          /GlobalAveragePool_194   1 1 /Conv_787_output_0_splitncnn_1 /GlobalAveragePool_194_output_0 0=1 4=1
InnerProduct     /Conv_788                1 1 /GlobalAveragePool_194_output_0 /Relu_389_output_0 0=4 1=1 2=256 9=1
InnerProduct     /Conv_789                1 1 /Relu_389_output_0 /Sigmoid_194_output_0 0=64 1=1 2=256 9=4
BinaryOp         /Mul_195                 2 1 /Conv_787_output_0_splitncnn_0 /Sigmoid_194_output_0 /Mul_195_output_0 0=2
BinaryOp         /Add_203                 2 1 /Mul_195_output_0 /Add_202_output_0_splitncnn_0 /Add_203_output_0
Split            splitncnn_390            1 2 /Add_203_output_0 /Add_203_output_0_splitncnn_0 /Add_203_output_0_splitncnn_1
Convolution      /Conv_790                1 1 /Add_203_output_0_splitncnn_1 /Relu_390_output_0 0=64 1=3 4=1 5=1 6=36864 9=1
Convolution      /Conv_791                1 1 /Relu_390_output_0 /Conv_791_output_0 0=64 1=3 4=1 5=1 6=36864
Split            splitncnn_391            1 2 /Conv_791_output_0 /Conv_791_output_0_splitncnn_0 /Conv_791_output_0_splitncnn_1
Pooling          /GlobalAveragePool_195   1 1 /Conv_791_output_0_splitncnn_1 /GlobalAveragePool_195_output_0 0=1 4=1
InnerProduct     /Conv_792                1 1 /GlobalAveragePool_195_output_0 /Relu_391_output_0 0=4 1=1 2=256 9=1
InnerProduct     /Conv_793                1 1 /Relu_391_output_0 /Sigmoid_195_output_0 0=64 1=1 2=256 9=4
BinaryOp         /Mul_196                 2 1 /Conv_791_output_0_splitncnn_0 /Sigmoid_195_output_0 /Mul_196_output_0 0=2
BinaryOp         /Add_204                 2 1 /Mul_196_output_0 /Add_203_output_0_splitncnn_0 /Add_204_output_0
Split            splitncnn_392            1 2 /Add_204_output_0 /Add_204_output_0_splitncnn_0 /Add_204_output_0_splitncnn_1
Convolution      /Conv_794                1 1 /Add_204_output_0_splitncnn_1 /Relu_392_output_0 0=64 1=3 4=1 5=1 6=36864 9=1
Convolution      /Conv_795                1 1 /Relu_392_output_0 /Conv_795_output_0 0=64 1=3 4=1 5=1 6=36864
Split            splitncnn_393            1 2 /Conv_795_output_0 /Conv_795_output_0_splitncnn_0 /Conv_795_output_0_splitncnn_1
Pooling          /GlobalAveragePool_196   1 1 /Conv_795_output_0_splitncnn_1 /GlobalAveragePool_196_output_0 0=1 4=1
InnerProduct     /Conv_796                1 1 /GlobalAveragePool_196_output_0 /Relu_393_output_0 0=4 1=1 2=256 9=1
InnerProduct     /Conv_797                1 1 /Relu_393_output_0 /Sigmoid_196_output_0 0=64 1=1 2=256 9=4
BinaryOp         /Mul_197                 2 1 /Conv_795_output_0_splitncnn_0 /Sigmoid_196_output_0 /Mul_197_output_0 0=2
BinaryOp         /Add_205                 2 1 /Mul_197_output_0 /Add_204_output_0_splitncnn_0 /Add_205_output_0
Split            splitncnn_394            1 2 /Add_205_output_0 /Add_205_output_0_splitncnn_0 /Add_205_output_0_splitncnn_1
Convolution      /Conv_798                1 1 /Add_205_output_0_splitncnn_1 /Relu_394_output_0 0=64 1=3 4=1 5=1 6=36864 9=1
Convolution      /Conv_799                1 1 /Relu_394_output_0 /Conv_799_output_0 0=64 1=3 4=1 5=1 6=36864
Split            splitncnn_395            1 2 /Conv_799_output_0 /Conv_799_output_0_splitncnn_0 /Conv_799_output_0_splitncnn_1
Pooling          /GlobalAveragePool_197   1 1 /Conv_799_output_0_splitncnn_1 /GlobalAveragePool_197_output_0 0=1 4=1
InnerProduct     /Conv_800                1 1 /GlobalAveragePool_197_output_0 /Relu_395_output_0 0=4 1=1 2=256 9=1
InnerProduct     /Conv_801                1 1 /Relu_395_output_0 /Sigmoid_197_output_0 0=64 1=1 2=256 9=4
BinaryOp         /Mul_198                 2 1 /Conv_799_output_0_splitncnn_0 /Sigmoid_197_output_0 /Mul_198_output_0 0=2
BinaryOp         /Add_206                 2 1 /Mul_198_output_0 /Add_205_output_0_splitncnn_0 /Add_206_output_0
Split            splitncnn_396            1 2 /Add_206_output_0 /Add_206_output_0_splitncnn_0 /Add_206_output_0_splitncnn_1
Convolution      /Conv_802                1 1 /Add_206_output_0_splitncnn_1 /Relu_396_output_0 0=64 1=3 4=1 5=1 6=36864 9=1
Convolution      /Conv_803                1 1 /Relu_396_output_0 /Conv_803_output_0 0=64 1=3 4=1 5=1 6=36864
Split            splitncnn_397            1 2 /Conv_803_output_0 /Conv_803_output_0_splitncnn_0 /Conv_803_output_0_splitncnn_1
Pooling          /GlobalAveragePool_198   1 1 /Conv_803_output_0_splitncnn_1 /GlobalAveragePool_198_output_0 0=1 4=1
InnerProduct     /Conv_804                1 1 /GlobalAveragePool_198_output_0 /Relu_397_output_0 0=4 1=1 2=256 9=1
InnerProduct     /Conv_805                1 1 /Relu_397_output_0 /Sigmoid_198_output_0 0=64 1=1 2=256 9=4
BinaryOp         /Mul_199                 2 1 /Conv_803_output_0_splitncnn_0 /Sigmoid_198_output_0 /Mul_199_output_0 0=2
BinaryOp         /Add_207                 2 1 /Mul_199_output_0 /Add_206_output_0_splitncnn_0 /Add_207_output_0
Split            splitncnn_398            1 2 /Add_207_output_0 /Add_207_output_0_splitncnn_0 /Add_207_output_0_splitncnn_1
Convolution      /Conv_806                1 1 /Add_207_output_0_splitncnn_1 /Relu_398_output_0 0=64 1=3 4=1 5=1 6=36864 9=1
Convolution      /Conv_807                1 1 /Relu_398_output_0 /Conv_807_output_0 0=64 1=3 4=1 5=1 6=36864
Split            splitncnn_399            1 2 /Conv_807_output_0 /Conv_807_output_0_splitncnn_0 /Conv_807_output_0_splitncnn_1
Pooling          /GlobalAveragePool_199   1 1 /Conv_807_output_0_splitncnn_1 /GlobalAveragePool_199_output_0 0=1 4=1
InnerProduct     /Conv_808                1 1 /GlobalAveragePool_199_output_0 /Relu_399_output_0 0=4 1=1 2=256 9=1
InnerProduct     /Conv_809                1 1 /Relu_399_output_0 /Sigmoid_199_output_0 0=64 1=1 2=256 9=4
BinaryOp         /Mul_200                 2 1 /Conv_807_output_0_splitncnn_0 /Sigmoid_199_output_0 /Mul_200_output_0 0=2
BinaryOp         /Add_208                 2 1 /Mul_200_output_0 /Add_207_output_0_splitncnn_0 /Add_208_output_0
Convolution      /Conv_810                1 1 /Add_208_output_0 /Conv_810_output_0 0=64 1=3 4=1 5=1 6=36864
BinaryOp         /Add_209                 2 1 /Conv_810_output_0 /Add_188_output_0_splitncnn_0 /Add_209_output_0
Convolution      /Conv_811                1 1 /Add_209_output_0 /Conv_811_output_0 0=64 1=3 4=1 5=1 6=36864
BinaryOp         /Add_210                 2 1 /Conv_811_output_0 /Conv_output_0_splitncnn_0 /Add_210_output_0
Convolution      /Conv_812                1 1 /Add_210_output_0 /Conv_812_output_0 0=256 1=3 4=1 5=1 6=147456
PixelShuffle     /DepthToSpace            1 1 /Conv_812_output_0 /DepthToSpace_output_0 0=2
Convolution      /Conv_813                1 1 /DepthToSpace_output_0 output 0=3 1=3 4=1 5=1 6=1728 9=3 -23310=2,0.000000e+00,1.000000e+00
